program(1.0)
[buildInfo = dict<tensor<string, []>, tensor<string, []>>({{"coremlc-component-MIL", "3510.2.1"}, {"coremlc-version", "3500.32.1"}, {"coremltools-component-torch", "1.13.1"}, {"coremltools-version", "6.3.0"}})]
{
    func main<ios15>(tensor<int32, [1, ?]> attention_mask, tensor<int32, [1, ?]> input_ids) [FlexibleShapeInformation = tuple<tuple<tensor<string, []>, dict<tensor<string, []>, tensor<int32, [?]>>>, tuple<tensor<string, []>, dict<tensor<string, []>, list<tensor<int32, [2]>, ?>>>>((("DefaultShapes", {{"attention_mask", [1, 1]}, {"input_ids", [1, 1]}}), ("RangeDims", {{"attention_mask", [[1, 1], [1, 128]]}, {"input_ids", [[1, 1], [1, 128]]}})))] {
            tensor<int32, [1, 512]> model_embeddings_token_type_ids = const()[name = tensor<string, []>("model_embeddings_token_type_ids"), val = tensor<int32, [1, 512]>([[0, 0, 0, 0, 0, 0, 0, 0, 0, 0, 0, 0, 0, 0, 0, 0, 0, 0, 0, 0, 0, 0, 0, 0, 0, 0, 0, 0, 0, 0, 0, 0, 0, 0, 0, 0, 0, 0, 0, 0, 0, 0, 0, 0, 0, 0, 0, 0, 0, 0, 0, 0, 0, 0, 0, 0, 0, 0, 0, 0, 0, 0, 0, 0, 0, 0, 0, 0, 0, 0, 0, 0, 0, 0, 0, 0, 0, 0, 0, 0, 0, 0, 0, 0, 0, 0, 0, 0, 0, 0, 0, 0, 0, 0, 0, 0, 0, 0, 0, 0, 0, 0, 0, 0, 0, 0, 0, 0, 0, 0, 0, 0, 0, 0, 0, 0, 0, 0, 0, 0, 0, 0, 0, 0, 0, 0, 0, 0, 0, 0, 0, 0, 0, 0, 0, 0, 0, 0, 0, 0, 0, 0, 0, 0, 0, 0, 0, 0, 0, 0, 0, 0, 0, 0, 0, 0, 0, 0, 0, 0, 0, 0, 0, 0, 0, 0, 0, 0, 0, 0, 0, 0, 0, 0, 0, 0, 0, 0, 0, 0, 0, 0, 0, 0, 0, 0, 0, 0, 0, 0, 0, 0, 0, 0, 0, 0, 0, 0, 0, 0, 0, 0, 0, 0, 0, 0, 0, 0, 0, 0, 0, 0, 0, 0, 0, 0, 0, 0, 0, 0, 0, 0, 0, 0, 0, 0, 0, 0, 0, 0, 0, 0, 0, 0, 0, 0, 0, 0, 0, 0, 0, 0, 0, 0, 0, 0, 0, 0, 0, 0, 0, 0, 0, 0, 0, 0, 0, 0, 0, 0, 0, 0, 0, 0, 0, 0, 0, 0, 0, 0, 0, 0, 0, 0, 0, 0, 0, 0, 0, 0, 0, 0, 0, 0, 0, 0, 0, 0, 0, 0, 0, 0, 0, 0, 0, 0, 0, 0, 0, 0, 0, 0, 0, 0, 0, 0, 0, 0, 0, 0, 0, 0, 0, 0, 0, 0, 0, 0, 0, 0, 0, 0, 0, 0, 0, 0, 0, 0, 0, 0, 0, 0, 0, 0, 0, 0, 0, 0, 0, 0, 0, 0, 0, 0, 0, 0, 0, 0, 0, 0, 0, 0, 0, 0, 0, 0, 0, 0, 0, 0, 0, 0, 0, 0, 0, 0, 0, 0, 0, 0, 0, 0, 0, 0, 0, 0, 0, 0, 0, 0, 0, 0, 0, 0, 0, 0, 0, 0, 0, 0, 0, 0, 0, 0, 0, 0, 0, 0, 0, 0, 0, 0, 0, 0, 0, 0, 0, 0, 0, 0, 0, 0, 0, 0, 0, 0, 0, 0, 0, 0, 0, 0, 0, 0, 0, 0, 0, 0, 0, 0, 0, 0, 0, 0, 0, 0, 0, 0, 0, 0, 0, 0, 0, 0, 0, 0, 0, 0, 0, 0, 0, 0, 0, 0, 0, 0, 0, 0, 0, 0, 0, 0, 0, 0, 0, 0, 0, 0, 0, 0, 0, 0, 0, 0, 0, 0, 0, 0, 0, 0, 0, 0, 0, 0, 0, 0, 0, 0, 0, 0, 0, 0, 0, 0, 0, 0, 0, 0, 0, 0, 0, 0, 0, 0, 0, 0, 0, 0, 0, 0, 0, 0]])];
            tensor<int32, [1, 512]> model_embeddings_position_ids = const()[name = tensor<string, []>("model_embeddings_position_ids"), val = tensor<int32, [1, 512]>([[0, 1, 2, 3, 4, 5, 6, 7, 8, 9, 10, 11, 12, 13, 14, 15, 16, 17, 18, 19, 20, 21, 22, 23, 24, 25, 26, 27, 28, 29, 30, 31, 32, 33, 34, 35, 36, 37, 38, 39, 40, 41, 42, 43, 44, 45, 46, 47, 48, 49, 50, 51, 52, 53, 54, 55, 56, 57, 58, 59, 60, 61, 62, 63, 64, 65, 66, 67, 68, 69, 70, 71, 72, 73, 74, 75, 76, 77, 78, 79, 80, 81, 82, 83, 84, 85, 86, 87, 88, 89, 90, 91, 92, 93, 94, 95, 96, 97, 98, 99, 100, 101, 102, 103, 104, 105, 106, 107, 108, 109, 110, 111, 112, 113, 114, 115, 116, 117, 118, 119, 120, 121, 122, 123, 124, 125, 126, 127, 128, 129, 130, 131, 132, 133, 134, 135, 136, 137, 138, 139, 140, 141, 142, 143, 144, 145, 146, 147, 148, 149, 150, 151, 152, 153, 154, 155, 156, 157, 158, 159, 160, 161, 162, 163, 164, 165, 166, 167, 168, 169, 170, 171, 172, 173, 174, 175, 176, 177, 178, 179, 180, 181, 182, 183, 184, 185, 186, 187, 188, 189, 190, 191, 192, 193, 194, 195, 196, 197, 198, 199, 200, 201, 202, 203, 204, 205, 206, 207, 208, 209, 210, 211, 212, 213, 214, 215, 216, 217, 218, 219, 220, 221, 222, 223, 224, 225, 226, 227, 228, 229, 230, 231, 232, 233, 234, 235, 236, 237, 238, 239, 240, 241, 242, 243, 244, 245, 246, 247, 248, 249, 250, 251, 252, 253, 254, 255, 256, 257, 258, 259, 260, 261, 262, 263, 264, 265, 266, 267, 268, 269, 270, 271, 272, 273, 274, 275, 276, 277, 278, 279, 280, 281, 282, 283, 284, 285, 286, 287, 288, 289, 290, 291, 292, 293, 294, 295, 296, 297, 298, 299, 300, 301, 302, 303, 304, 305, 306, 307, 308, 309, 310, 311, 312, 313, 314, 315, 316, 317, 318, 319, 320, 321, 322, 323, 324, 325, 326, 327, 328, 329, 330, 331, 332, 333, 334, 335, 336, 337, 338, 339, 340, 341, 342, 343, 344, 345, 346, 347, 348, 349, 350, 351, 352, 353, 354, 355, 356, 357, 358, 359, 360, 361, 362, 363, 364, 365, 366, 367, 368, 369, 370, 371, 372, 373, 374, 375, 376, 377, 378, 379, 380, 381, 382, 383, 384, 385, 386, 387, 388, 389, 390, 391, 392, 393, 394, 395, 396, 397, 398, 399, 400, 401, 402, 403, 404, 405, 406, 407, 408, 409, 410, 411, 412, 413, 414, 415, 416, 417, 418, 419, 420, 421, 422, 423, 424, 425, 426, 427, 428, 429, 430, 431, 432, 433, 434, 435, 436, 437, 438, 439, 440, 441, 442, 443, 444, 445, 446, 447, 448, 449, 450, 451, 452, 453, 454, 455, 456, 457, 458, 459, 460, 461, 462, 463, 464, 465, 466, 467, 468, 469, 470, 471, 472, 473, 474, 475, 476, 477, 478, 479, 480, 481, 482, 483, 484, 485, 486, 487, 488, 489, 490, 491, 492, 493, 494, 495, 496, 497, 498, 499, 500, 501, 502, 503, 504, 505, 506, 507, 508, 509, 510, 511]])];
            tensor<int32, []> var_6 = const()[name = tensor<string, []>("op_6"), val = tensor<int32, []>(32)];
            tensor<int32, []> var_7 = const()[name = tensor<string, []>("op_7"), val = tensor<int32, []>(12)];
            tensor<int32, []> var_8 = const()[name = tensor<string, []>("op_8"), val = tensor<int32, []>(-1)];
            tensor<int32, []> var_11 = const()[name = tensor<string, []>("op_11"), val = tensor<int32, []>(384)];
            tensor<int32, [2]> var_27_shape = shape(x = input_ids);
            tensor<int32, []> gather_1_indices_0 = const()[name = tensor<string, []>("gather_1_indices_0"), val = tensor<int32, []>(1)];
            tensor<int32, []> gather_1_axis_0 = const()[name = tensor<string, []>("gather_1_axis_0"), val = tensor<int32, []>(0)];
            tensor<int32, []> gather_1 = gather(axis = gather_1_axis_0, indices = gather_1_indices_0, x = var_27_shape);
            tensor<int32, []> concat_0_values0_0 = const()[name = tensor<string, []>("concat_0_values0_0"), val = tensor<int32, []>(1)];
            tensor<int32, []> concat_0_axis_0 = const()[name = tensor<string, []>("concat_0_axis_0"), val = tensor<int32, []>(0)];
            tensor<bool, []> concat_0_interleave_0 = const()[name = tensor<string, []>("concat_0_interleave_0"), val = tensor<bool, []>(false)];
            tensor<int32, [2]> concat_0 = concat(axis = concat_0_axis_0, interleave = concat_0_interleave_0, values = (concat_0_values0_0, gather_1));
            tensor<int32, [2]> buffered_token_type_ids_begin_0 = const()[name = tensor<string, []>("buffered_token_type_ids_begin_0"), val = tensor<int32, [2]>([0, 0])];
            tensor<bool, [2]> buffered_token_type_ids_end_mask_0 = const()[name = tensor<string, []>("buffered_token_type_ids_end_mask_0"), val = tensor<bool, [2]>([true, false])];
            tensor<int32, [1, ?]> buffered_token_type_ids = slice_by_index(begin = buffered_token_type_ids_begin_0, end = concat_0, end_mask = buffered_token_type_ids_end_mask_0, x = model_embeddings_token_type_ids);
            tensor<int32, [2]> shape_0 = shape(x = buffered_token_type_ids);
            tensor<int32, [2]> real_div_0 = real_div(x = concat_0, y = shape_0);
            tensor<int32, [?, ?]> input_1 = tile(reps = real_div_0, x = buffered_token_type_ids);
            tensor<int32, [1]> var_34_axes_0 = const()[name = tensor<string, []>("op_34_axes_0"), val = tensor<int32, [1]>([1])];
            tensor<int32, [1, 1, ?]> var_34 = expand_dims(axes = var_34_axes_0, x = attention_mask);
            tensor<int32, [1]> var_35_axes_0 = const()[name = tensor<string, []>("op_35_axes_0"), val = tensor<int32, [1]>([2])];
            tensor<int32, [1, 1, 1, ?]> var_35 = expand_dims(axes = var_35_axes_0, x = var_34);
            tensor<fp16, []> var_13_to_fp16 = const()[name = tensor<string, []>("op_13_to_fp16"), val = tensor<fp16, []>(0x1p+0)];
            tensor<string, []> var_37_to_fp16_dtype_0 = const()[name = tensor<string, []>("op_37_to_fp16_dtype_0"), val = tensor<string, []>("fp16")];
            tensor<fp16, [1, 1, 1, ?]> cast_375 = cast(dtype = var_37_to_fp16_dtype_0, x = var_35);
            tensor<fp16, [1, 1, 1, ?]> var_38_cast = sub(x = var_13_to_fp16, y = cast_375);
            tensor<string, []> var_38_cast_to_fp32_dtype_0 = const()[name = tensor<string, []>("op_38_cast_to_fp32_dtype_0"), val = tensor<string, []>("fp32")];
            tensor<fp32, []> var_39 = const()[name = tensor<string, []>("op_39"), val = tensor<fp32, []>(-0x1.fffffep+127)];
            tensor<fp32, [1, 1, 1, ?]> cast_374 = cast(dtype = var_38_cast_to_fp32_dtype_0, x = var_38_cast);
            tensor<fp32, [1, 1, 1, ?]> attention_mask_1 = mul(x = cast_374, y = var_39);
            tensor<int32, [2]> input_3_begin_0 = const()[name = tensor<string, []>("input_3_begin_0"), val = tensor<int32, [2]>([0, 0])];
            tensor<bool, [2]> input_3_end_mask_0 = const()[name = tensor<string, []>("input_3_end_mask_0"), val = tensor<bool, [2]>([true, false])];
            tensor<int32, [1, ?]> input_3 = slice_by_index(begin = input_3_begin_0, end = concat_0, end_mask = input_3_end_mask_0, x = model_embeddings_position_ids);
            tensor<int32, []> inputs_embeds_axis_0 = const()[name = tensor<string, []>("inputs_embeds_axis_0"), val = tensor<int32, []>(0)];
            tensor<fp16, [250037, 384]> model_embeddings_word_embeddings_weight_to_fp16 = const()[name = tensor<string, []>("model_embeddings_word_embeddings_weight_to_fp16"), val = tensor<fp16, [250037, 384]>(BLOBFILE(path = tensor<string, []>("@model_path/weights/weight.bin"), offset = tensor<uint64, []>(64)))];
            tensor<fp16, [1, ?, 384]> inputs_embeds_cast = gather(axis = inputs_embeds_axis_0, indices = input_ids, x = model_embeddings_word_embeddings_weight_to_fp16);
            tensor<int32, []> token_type_embeddings_1_axis_0 = const()[name = tensor<string, []>("token_type_embeddings_1_axis_0"), val = tensor<int32, []>(0)];
            tensor<fp16, [2, 384]> model_embeddings_token_type_embeddings_weight_to_fp16 = const()[name = tensor<string, []>("model_embeddings_token_type_embeddings_weight_to_fp16"), val = tensor<fp16, [2, 384]>(BLOBFILE(path = tensor<string, []>("@model_path/weights/weight.bin"), offset = tensor<uint64, []>(192028544)))];
            tensor<fp16, [?, ?, 384]> token_type_embeddings_1_cast = gather(axis = token_type_embeddings_1_axis_0, indices = input_1, x = model_embeddings_token_type_embeddings_weight_to_fp16);
            tensor<fp16, [?, ?, 384]> embeddings_1_cast = add(x = inputs_embeds_cast, y = token_type_embeddings_1_cast);
            tensor<int32, []> position_embeddings_1_axis_0 = const()[name = tensor<string, []>("position_embeddings_1_axis_0"), val = tensor<int32, []>(0)];
            tensor<fp16, [512, 384]> model_embeddings_position_embeddings_weight_to_fp16 = const()[name = tensor<string, []>("model_embeddings_position_embeddings_weight_to_fp16"), val = tensor<fp16, [512, 384]>(BLOBFILE(path = tensor<string, []>("@model_path/weights/weight.bin"), offset = tensor<uint64, []>(192030144)))];
            tensor<fp16, [1, ?, 384]> position_embeddings_1_cast = gather(axis = position_embeddings_1_axis_0, indices = input_3, x = model_embeddings_position_embeddings_weight_to_fp16);
            tensor<fp16, [?, ?, 384]> input_5_cast = add(x = embeddings_1_cast, y = position_embeddings_1_cast);
            tensor<int32, [1]> input_7_axes_0 = const()[name = tensor<string, []>("input_7_axes_0"), val = tensor<int32, [1]>([-1])];
            tensor<fp16, [384]> model_embeddings_LayerNorm_weight_to_fp16 = const()[name = tensor<string, []>("model_embeddings_LayerNorm_weight_to_fp16"), val = tensor<fp16, [384]>(BLOBFILE(path = tensor<string, []>("@model_path/weights/weight.bin"), offset = tensor<uint64, []>(192423424)))];
            tensor<fp16, [384]> model_embeddings_LayerNorm_bias_to_fp16 = const()[name = tensor<string, []>("model_embeddings_LayerNorm_bias_to_fp16"), val = tensor<fp16, [384]>(BLOBFILE(path = tensor<string, []>("@model_path/weights/weight.bin"), offset = tensor<uint64, []>(192424256)))];
            tensor<fp16, []> var_10_to_fp16 = const()[name = tensor<string, []>("op_10_to_fp16"), val = tensor<fp16, []>(0x1p-24)];
            tensor<fp16, [?, ?, 384]> input_7_cast = layer_norm(axes = input_7_axes_0, beta = model_embeddings_LayerNorm_bias_to_fp16, epsilon = var_10_to_fp16, gamma = model_embeddings_LayerNorm_weight_to_fp16, x = input_5_cast);
            tensor<fp16, [384, 384]> model_encoder_layer_0_attention_self_query_weight_to_fp16 = const()[name = tensor<string, []>("model_encoder_layer_0_attention_self_query_weight_to_fp16"), val = tensor<fp16, [384, 384]>(BLOBFILE(path = tensor<string, []>("@model_path/weights/weight.bin"), offset = tensor<uint64, []>(192425088)))];
            tensor<fp16, [384]> model_encoder_layer_0_attention_self_query_bias_to_fp16 = const()[name = tensor<string, []>("model_encoder_layer_0_attention_self_query_bias_to_fp16"), val = tensor<fp16, [384]>(BLOBFILE(path = tensor<string, []>("@model_path/weights/weight.bin"), offset = tensor<uint64, []>(192720064)))];
            tensor<fp16, [?, ?, 384]> x_9_cast = linear(bias = model_encoder_layer_0_attention_self_query_bias_to_fp16, weight = model_encoder_layer_0_attention_self_query_weight_to_fp16, x = input_7_cast);
            tensor<fp16, [384, 384]> model_encoder_layer_0_attention_self_key_weight_to_fp16 = const()[name = tensor<string, []>("model_encoder_layer_0_attention_self_key_weight_to_fp16"), val = tensor<fp16, [384, 384]>(BLOBFILE(path = tensor<string, []>("@model_path/weights/weight.bin"), offset = tensor<uint64, []>(192720896)))];
            tensor<fp16, [384]> model_encoder_layer_0_attention_self_key_bias_to_fp16 = const()[name = tensor<string, []>("model_encoder_layer_0_attention_self_key_bias_to_fp16"), val = tensor<fp16, [384]>(BLOBFILE(path = tensor<string, []>("@model_path/weights/weight.bin"), offset = tensor<uint64, []>(193015872)))];
            tensor<fp16, [?, ?, 384]> x_1_cast = linear(bias = model_encoder_layer_0_attention_self_key_bias_to_fp16, weight = model_encoder_layer_0_attention_self_key_weight_to_fp16, x = input_7_cast);
            tensor<int32, [3]> var_104_shape_cast = shape(x = x_1_cast);
            tensor<int32, []> gather_3_indices_0 = const()[name = tensor<string, []>("gather_3_indices_0"), val = tensor<int32, []>(0)];
            tensor<int32, []> gather_3_axis_0 = const()[name = tensor<string, []>("gather_3_axis_0"), val = tensor<int32, []>(0)];
            tensor<int32, []> gather_3 = gather(axis = gather_3_axis_0, indices = gather_3_indices_0, x = var_104_shape_cast);
            tensor<int32, []> gather_4_indices_0 = const()[name = tensor<string, []>("gather_4_indices_0"), val = tensor<int32, []>(1)];
            tensor<int32, []> gather_4_axis_0 = const()[name = tensor<string, []>("gather_4_axis_0"), val = tensor<int32, []>(0)];
            tensor<int32, []> gather_4 = gather(axis = gather_4_axis_0, indices = gather_4_indices_0, x = var_104_shape_cast);
            tensor<int32, []> concat_3_axis_0 = const()[name = tensor<string, []>("concat_3_axis_0"), val = tensor<int32, []>(0)];
            tensor<bool, []> concat_3_interleave_0 = const()[name = tensor<string, []>("concat_3_interleave_0"), val = tensor<bool, []>(false)];
            tensor<int32, [4]> concat_3 = concat(axis = concat_3_axis_0, interleave = concat_3_interleave_0, values = (gather_3, gather_4, var_7, var_6));
            tensor<fp16, [?, ?, 12, 32]> x_3_cast = reshape(shape = concat_3, x = x_1_cast);
            tensor<fp16, [384, 384]> model_encoder_layer_0_attention_self_value_weight_to_fp16 = const()[name = tensor<string, []>("model_encoder_layer_0_attention_self_value_weight_to_fp16"), val = tensor<fp16, [384, 384]>(BLOBFILE(path = tensor<string, []>("@model_path/weights/weight.bin"), offset = tensor<uint64, []>(193016704)))];
            tensor<fp16, [384]> model_encoder_layer_0_attention_self_value_bias_to_fp16 = const()[name = tensor<string, []>("model_encoder_layer_0_attention_self_value_bias_to_fp16"), val = tensor<fp16, [384]>(BLOBFILE(path = tensor<string, []>("@model_path/weights/weight.bin"), offset = tensor<uint64, []>(193311680)))];
            tensor<fp16, [?, ?, 384]> x_5_cast = linear(bias = model_encoder_layer_0_attention_self_value_bias_to_fp16, weight = model_encoder_layer_0_attention_self_value_weight_to_fp16, x = input_7_cast);
            tensor<int32, [3]> var_113_shape_cast = shape(x = x_5_cast);
            tensor<int32, []> gather_5_indices_0 = const()[name = tensor<string, []>("gather_5_indices_0"), val = tensor<int32, []>(0)];
            tensor<int32, []> gather_5_axis_0 = const()[name = tensor<string, []>("gather_5_axis_0"), val = tensor<int32, []>(0)];
            tensor<int32, []> gather_5 = gather(axis = gather_5_axis_0, indices = gather_5_indices_0, x = var_113_shape_cast);
            tensor<int32, []> gather_6_indices_0 = const()[name = tensor<string, []>("gather_6_indices_0"), val = tensor<int32, []>(1)];
            tensor<int32, []> gather_6_axis_0 = const()[name = tensor<string, []>("gather_6_axis_0"), val = tensor<int32, []>(0)];
            tensor<int32, []> gather_6 = gather(axis = gather_6_axis_0, indices = gather_6_indices_0, x = var_113_shape_cast);
            tensor<int32, []> concat_4_axis_0 = const()[name = tensor<string, []>("concat_4_axis_0"), val = tensor<int32, []>(0)];
            tensor<bool, []> concat_4_interleave_0 = const()[name = tensor<string, []>("concat_4_interleave_0"), val = tensor<bool, []>(false)];
            tensor<int32, [4]> concat_4 = concat(axis = concat_4_axis_0, interleave = concat_4_interleave_0, values = (gather_5, gather_6, var_7, var_6));
            tensor<fp16, [?, ?, 12, 32]> x_7_cast = reshape(shape = concat_4, x = x_5_cast);
            tensor<int32, [4]> var_117 = const()[name = tensor<string, []>("op_117"), val = tensor<int32, [4]>([0, 2, 1, 3])];
            tensor<int32, [3]> var_119_shape_cast = shape(x = x_9_cast);
            tensor<int32, []> gather_7_indices_0 = const()[name = tensor<string, []>("gather_7_indices_0"), val = tensor<int32, []>(0)];
            tensor<int32, []> gather_7_axis_0 = const()[name = tensor<string, []>("gather_7_axis_0"), val = tensor<int32, []>(0)];
            tensor<int32, []> gather_7 = gather(axis = gather_7_axis_0, indices = gather_7_indices_0, x = var_119_shape_cast);
            tensor<int32, []> gather_8_indices_0 = const()[name = tensor<string, []>("gather_8_indices_0"), val = tensor<int32, []>(1)];
            tensor<int32, []> gather_8_axis_0 = const()[name = tensor<string, []>("gather_8_axis_0"), val = tensor<int32, []>(0)];
            tensor<int32, []> gather_8 = gather(axis = gather_8_axis_0, indices = gather_8_indices_0, x = var_119_shape_cast);
            tensor<int32, []> concat_5_axis_0 = const()[name = tensor<string, []>("concat_5_axis_0"), val = tensor<int32, []>(0)];
            tensor<bool, []> concat_5_interleave_0 = const()[name = tensor<string, []>("concat_5_interleave_0"), val = tensor<bool, []>(false)];
            tensor<int32, [4]> concat_5 = concat(axis = concat_5_axis_0, interleave = concat_5_interleave_0, values = (gather_7, gather_8, var_7, var_6));
            tensor<fp16, [?, ?, 12, 32]> x_11_cast = reshape(shape = concat_5, x = x_9_cast);
            tensor<bool, []> attention_scores_1_transpose_x_0 = const()[name = tensor<string, []>("attention_scores_1_transpose_x_0"), val = tensor<bool, []>(false)];
            tensor<bool, []> attention_scores_1_transpose_y_0 = const()[name = tensor<string, []>("attention_scores_1_transpose_y_0"), val = tensor<bool, []>(false)];
            tensor<int32, [4]> transpose_12_perm_0 = const()[name = tensor<string, []>("transpose_12_perm_0"), val = tensor<int32, [4]>([0, 2, 1, 3])];
            tensor<int32, [4]> transpose_13_perm_0 = const()[name = tensor<string, []>("transpose_13_perm_0"), val = tensor<int32, [4]>([0, 2, 3, 1])];
            tensor<fp16, [?, 12, 32, ?]> transpose_81 = transpose(perm = transpose_13_perm_0, x = x_3_cast);
            tensor<fp16, [?, 12, ?, 32]> transpose_82 = transpose(perm = transpose_12_perm_0, x = x_11_cast);
            tensor<fp16, [?, 12, ?, ?]> attention_scores_1_cast = matmul(transpose_x = attention_scores_1_transpose_x_0, transpose_y = attention_scores_1_transpose_y_0, x = transpose_82, y = transpose_81);
            tensor<fp16, []> _inversed_attention_scores_3_y_0_to_fp16 = const()[name = tensor<string, []>("_inversed_attention_scores_3_y_0_to_fp16"), val = tensor<fp16, []>(0x1.6ap-3)];
            tensor<fp16, [?, 12, ?, ?]> _inversed_attention_scores_3_cast = mul(x = attention_scores_1_cast, y = _inversed_attention_scores_3_y_0_to_fp16);
            tensor<string, []> attention_mask_to_fp16_dtype_0 = const()[name = tensor<string, []>("attention_mask_to_fp16_dtype_0"), val = tensor<string, []>("fp16")];
            tensor<fp16, [1, 1, 1, ?]> cast_356 = cast(dtype = attention_mask_to_fp16_dtype_0, x = attention_mask_1);
            tensor<fp16, [?, 12, ?, ?]> input_11_cast = add(x = _inversed_attention_scores_3_cast, y = cast_356);
            tensor<fp16, [?, 12, ?, ?]> input_13_cast = softmax(axis = var_8, x = input_11_cast);
            tensor<bool, []> context_layer_1_transpose_x_0 = const()[name = tensor<string, []>("context_layer_1_transpose_x_0"), val = tensor<bool, []>(false)];
            tensor<bool, []> context_layer_1_transpose_y_0 = const()[name = tensor<string, []>("context_layer_1_transpose_y_0"), val = tensor<bool, []>(false)];
            tensor<fp16, [?, 12, ?, 32]> transpose_83 = transpose(perm = var_117, x = x_7_cast);
            tensor<fp16, [?, 12, ?, 32]> context_layer_1_cast = matmul(transpose_x = context_layer_1_transpose_x_0, transpose_y = context_layer_1_transpose_y_0, x = input_13_cast, y = transpose_83);
            tensor<int32, [4]> var_133 = const()[name = tensor<string, []>("op_133"), val = tensor<int32, [4]>([0, 2, 1, 3])];
            tensor<fp16, [?, ?, 12, 32]> transpose_80 = transpose(perm = var_133, x = context_layer_1_cast);
            tensor<int32, [4]> var_136_shape_cast = shape(x = transpose_80);
            tensor<int32, []> gather_9_indices_0 = const()[name = tensor<string, []>("gather_9_indices_0"), val = tensor<int32, []>(0)];
            tensor<int32, []> gather_9_axis_0 = const()[name = tensor<string, []>("gather_9_axis_0"), val = tensor<int32, []>(0)];
            tensor<int32, []> gather_9 = gather(axis = gather_9_axis_0, indices = gather_9_indices_0, x = var_136_shape_cast);
            tensor<int32, []> gather_10_indices_0 = const()[name = tensor<string, []>("gather_10_indices_0"), val = tensor<int32, []>(1)];
            tensor<int32, []> gather_10_axis_0 = const()[name = tensor<string, []>("gather_10_axis_0"), val = tensor<int32, []>(0)];
            tensor<int32, []> gather_10 = gather(axis = gather_10_axis_0, indices = gather_10_indices_0, x = var_136_shape_cast);
            tensor<int32, []> concat_6_axis_0 = const()[name = tensor<string, []>("concat_6_axis_0"), val = tensor<int32, []>(0)];
            tensor<bool, []> concat_6_interleave_0 = const()[name = tensor<string, []>("concat_6_interleave_0"), val = tensor<bool, []>(false)];
            tensor<int32, [3]> concat_6 = concat(axis = concat_6_axis_0, interleave = concat_6_interleave_0, values = (gather_9, gather_10, var_11));
            tensor<fp16, [?, ?, 384]> input_15_cast = reshape(shape = concat_6, x = transpose_80);
            tensor<fp16, [384, 384]> model_encoder_layer_0_attention_output_dense_weight_to_fp16 = const()[name = tensor<string, []>("model_encoder_layer_0_attention_output_dense_weight_to_fp16"), val = tensor<fp16, [384, 384]>(BLOBFILE(path = tensor<string, []>("@model_path/weights/weight.bin"), offset = tensor<uint64, []>(193312512)))];
            tensor<fp16, [384]> model_encoder_layer_0_attention_output_dense_bias_to_fp16 = const()[name = tensor<string, []>("model_encoder_layer_0_attention_output_dense_bias_to_fp16"), val = tensor<fp16, [384]>(BLOBFILE(path = tensor<string, []>("@model_path/weights/weight.bin"), offset = tensor<uint64, []>(193607488)))];
            tensor<fp16, [?, ?, 384]> input_17_cast = linear(bias = model_encoder_layer_0_attention_output_dense_bias_to_fp16, weight = model_encoder_layer_0_attention_output_dense_weight_to_fp16, x = input_15_cast);
            tensor<fp16, [?, ?, 384]> input_19_cast = add(x = input_17_cast, y = input_7_cast);
            tensor<int32, [1]> input_21_axes_0 = const()[name = tensor<string, []>("input_21_axes_0"), val = tensor<int32, [1]>([-1])];
            tensor<fp16, [384]> model_encoder_layer_0_attention_output_LayerNorm_weight_to_fp16 = const()[name = tensor<string, []>("model_encoder_layer_0_attention_output_LayerNorm_weight_to_fp16"), val = tensor<fp16, [384]>(BLOBFILE(path = tensor<string, []>("@model_path/weights/weight.bin"), offset = tensor<uint64, []>(193608320)))];
            tensor<fp16, [384]> model_encoder_layer_0_attention_output_LayerNorm_bias_to_fp16 = const()[name = tensor<string, []>("model_encoder_layer_0_attention_output_LayerNorm_bias_to_fp16"), val = tensor<fp16, [384]>(BLOBFILE(path = tensor<string, []>("@model_path/weights/weight.bin"), offset = tensor<uint64, []>(193609152)))];
            tensor<fp16, [?, ?, 384]> input_21_cast = layer_norm(axes = input_21_axes_0, beta = model_encoder_layer_0_attention_output_LayerNorm_bias_to_fp16, epsilon = var_10_to_fp16, gamma = model_encoder_layer_0_attention_output_LayerNorm_weight_to_fp16, x = input_19_cast);
            tensor<fp16, [1536, 384]> model_encoder_layer_0_intermediate_dense_weight_to_fp16 = const()[name = tensor<string, []>("model_encoder_layer_0_intermediate_dense_weight_to_fp16"), val = tensor<fp16, [1536, 384]>(BLOBFILE(path = tensor<string, []>("@model_path/weights/weight.bin"), offset = tensor<uint64, []>(193609984)))];
            tensor<fp16, [1536]> model_encoder_layer_0_intermediate_dense_bias_to_fp16 = const()[name = tensor<string, []>("model_encoder_layer_0_intermediate_dense_bias_to_fp16"), val = tensor<fp16, [1536]>(BLOBFILE(path = tensor<string, []>("@model_path/weights/weight.bin"), offset = tensor<uint64, []>(194789696)))];
            tensor<fp16, [?, ?, 1536]> input_23_cast = linear(bias = model_encoder_layer_0_intermediate_dense_bias_to_fp16, weight = model_encoder_layer_0_intermediate_dense_weight_to_fp16, x = input_21_cast);
            tensor<string, []> input_25_mode_0 = const()[name = tensor<string, []>("input_25_mode_0"), val = tensor<string, []>("EXACT")];
            tensor<fp16, [?, ?, 1536]> input_25_cast = gelu(mode = input_25_mode_0, x = input_23_cast);
            tensor<fp16, [384, 1536]> model_encoder_layer_0_output_dense_weight_to_fp16 = const()[name = tensor<string, []>("model_encoder_layer_0_output_dense_weight_to_fp16"), val = tensor<fp16, [384, 1536]>(BLOBFILE(path = tensor<string, []>("@model_path/weights/weight.bin"), offset = tensor<uint64, []>(194792832)))];
            tensor<fp16, [384]> model_encoder_layer_0_output_dense_bias_to_fp16 = const()[name = tensor<string, []>("model_encoder_layer_0_output_dense_bias_to_fp16"), val = tensor<fp16, [384]>(BLOBFILE(path = tensor<string, []>("@model_path/weights/weight.bin"), offset = tensor<uint64, []>(195972544)))];
            tensor<fp16, [?, ?, 384]> input_27_cast = linear(bias = model_encoder_layer_0_output_dense_bias_to_fp16, weight = model_encoder_layer_0_output_dense_weight_to_fp16, x = input_25_cast);
            tensor<fp16, [?, ?, 384]> input_29_cast = add(x = input_27_cast, y = input_21_cast);
            tensor<int32, [1]> input_31_axes_0 = const()[name = tensor<string, []>("input_31_axes_0"), val = tensor<int32, [1]>([-1])];
            tensor<fp16, [384]> model_encoder_layer_0_output_LayerNorm_weight_to_fp16 = const()[name = tensor<string, []>("model_encoder_layer_0_output_LayerNorm_weight_to_fp16"), val = tensor<fp16, [384]>(BLOBFILE(path = tensor<string, []>("@model_path/weights/weight.bin"), offset = tensor<uint64, []>(195973376)))];
            tensor<fp16, [384]> model_encoder_layer_0_output_LayerNorm_bias_to_fp16 = const()[name = tensor<string, []>("model_encoder_layer_0_output_LayerNorm_bias_to_fp16"), val = tensor<fp16, [384]>(BLOBFILE(path = tensor<string, []>("@model_path/weights/weight.bin"), offset = tensor<uint64, []>(195974208)))];
            tensor<fp16, [?, ?, 384]> input_31_cast = layer_norm(axes = input_31_axes_0, beta = model_encoder_layer_0_output_LayerNorm_bias_to_fp16, epsilon = var_10_to_fp16, gamma = model_encoder_layer_0_output_LayerNorm_weight_to_fp16, x = input_29_cast);
            tensor<fp16, [384, 384]> model_encoder_layer_1_attention_self_query_weight_to_fp16 = const()[name = tensor<string, []>("model_encoder_layer_1_attention_self_query_weight_to_fp16"), val = tensor<fp16, [384, 384]>(BLOBFILE(path = tensor<string, []>("@model_path/weights/weight.bin"), offset = tensor<uint64, []>(195975040)))];
            tensor<fp16, [384]> model_encoder_layer_1_attention_self_query_bias_to_fp16 = const()[name = tensor<string, []>("model_encoder_layer_1_attention_self_query_bias_to_fp16"), val = tensor<fp16, [384]>(BLOBFILE(path = tensor<string, []>("@model_path/weights/weight.bin"), offset = tensor<uint64, []>(196270016)))];
            tensor<fp16, [?, ?, 384]> x_21_cast = linear(bias = model_encoder_layer_1_attention_self_query_bias_to_fp16, weight = model_encoder_layer_1_attention_self_query_weight_to_fp16, x = input_31_cast);
            tensor<fp16, [384, 384]> model_encoder_layer_1_attention_self_key_weight_to_fp16 = const()[name = tensor<string, []>("model_encoder_layer_1_attention_self_key_weight_to_fp16"), val = tensor<fp16, [384, 384]>(BLOBFILE(path = tensor<string, []>("@model_path/weights/weight.bin"), offset = tensor<uint64, []>(196270848)))];
            tensor<fp16, [384]> model_encoder_layer_1_attention_self_key_bias_to_fp16 = const()[name = tensor<string, []>("model_encoder_layer_1_attention_self_key_bias_to_fp16"), val = tensor<fp16, [384]>(BLOBFILE(path = tensor<string, []>("@model_path/weights/weight.bin"), offset = tensor<uint64, []>(196565824)))];
            tensor<fp16, [?, ?, 384]> x_13_cast = linear(bias = model_encoder_layer_1_attention_self_key_bias_to_fp16, weight = model_encoder_layer_1_attention_self_key_weight_to_fp16, x = input_31_cast);
            tensor<int32, [3]> var_181_shape_cast = shape(x = x_13_cast);
            tensor<int32, []> gather_11_indices_0 = const()[name = tensor<string, []>("gather_11_indices_0"), val = tensor<int32, []>(0)];
            tensor<int32, []> gather_11_axis_0 = const()[name = tensor<string, []>("gather_11_axis_0"), val = tensor<int32, []>(0)];
            tensor<int32, []> gather_11 = gather(axis = gather_11_axis_0, indices = gather_11_indices_0, x = var_181_shape_cast);
            tensor<int32, []> gather_12_indices_0 = const()[name = tensor<string, []>("gather_12_indices_0"), val = tensor<int32, []>(1)];
            tensor<int32, []> gather_12_axis_0 = const()[name = tensor<string, []>("gather_12_axis_0"), val = tensor<int32, []>(0)];
            tensor<int32, []> gather_12 = gather(axis = gather_12_axis_0, indices = gather_12_indices_0, x = var_181_shape_cast);
            tensor<int32, []> concat_7_axis_0 = const()[name = tensor<string, []>("concat_7_axis_0"), val = tensor<int32, []>(0)];
            tensor<bool, []> concat_7_interleave_0 = const()[name = tensor<string, []>("concat_7_interleave_0"), val = tensor<bool, []>(false)];
            tensor<int32, [4]> concat_7 = concat(axis = concat_7_axis_0, interleave = concat_7_interleave_0, values = (gather_11, gather_12, var_7, var_6));
            tensor<fp16, [?, ?, 12, 32]> x_15_cast = reshape(shape = concat_7, x = x_13_cast);
            tensor<fp16, [384, 384]> model_encoder_layer_1_attention_self_value_weight_to_fp16 = const()[name = tensor<string, []>("model_encoder_layer_1_attention_self_value_weight_to_fp16"), val = tensor<fp16, [384, 384]>(BLOBFILE(path = tensor<string, []>("@model_path/weights/weight.bin"), offset = tensor<uint64, []>(196566656)))];
            tensor<fp16, [384]> model_encoder_layer_1_attention_self_value_bias_to_fp16 = const()[name = tensor<string, []>("model_encoder_layer_1_attention_self_value_bias_to_fp16"), val = tensor<fp16, [384]>(BLOBFILE(path = tensor<string, []>("@model_path/weights/weight.bin"), offset = tensor<uint64, []>(196861632)))];
            tensor<fp16, [?, ?, 384]> x_17_cast = linear(bias = model_encoder_layer_1_attention_self_value_bias_to_fp16, weight = model_encoder_layer_1_attention_self_value_weight_to_fp16, x = input_31_cast);
            tensor<int32, [3]> var_190_shape_cast = shape(x = x_17_cast);
            tensor<int32, []> gather_13_indices_0 = const()[name = tensor<string, []>("gather_13_indices_0"), val = tensor<int32, []>(0)];
            tensor<int32, []> gather_13_axis_0 = const()[name = tensor<string, []>("gather_13_axis_0"), val = tensor<int32, []>(0)];
            tensor<int32, []> gather_13 = gather(axis = gather_13_axis_0, indices = gather_13_indices_0, x = var_190_shape_cast);
            tensor<int32, []> gather_14_indices_0 = const()[name = tensor<string, []>("gather_14_indices_0"), val = tensor<int32, []>(1)];
            tensor<int32, []> gather_14_axis_0 = const()[name = tensor<string, []>("gather_14_axis_0"), val = tensor<int32, []>(0)];
            tensor<int32, []> gather_14 = gather(axis = gather_14_axis_0, indices = gather_14_indices_0, x = var_190_shape_cast);
            tensor<int32, []> concat_8_axis_0 = const()[name = tensor<string, []>("concat_8_axis_0"), val = tensor<int32, []>(0)];
            tensor<bool, []> concat_8_interleave_0 = const()[name = tensor<string, []>("concat_8_interleave_0"), val = tensor<bool, []>(false)];
            tensor<int32, [4]> concat_8 = concat(axis = concat_8_axis_0, interleave = concat_8_interleave_0, values = (gather_13, gather_14, var_7, var_6));
            tensor<fp16, [?, ?, 12, 32]> x_19_cast = reshape(shape = concat_8, x = x_17_cast);
            tensor<int32, [4]> var_194 = const()[name = tensor<string, []>("op_194"), val = tensor<int32, [4]>([0, 2, 1, 3])];
            tensor<int32, [3]> var_196_shape_cast = shape(x = x_21_cast);
            tensor<int32, []> gather_15_indices_0 = const()[name = tensor<string, []>("gather_15_indices_0"), val = tensor<int32, []>(0)];
            tensor<int32, []> gather_15_axis_0 = const()[name = tensor<string, []>("gather_15_axis_0"), val = tensor<int32, []>(0)];
            tensor<int32, []> gather_15 = gather(axis = gather_15_axis_0, indices = gather_15_indices_0, x = var_196_shape_cast);
            tensor<int32, []> gather_16_indices_0 = const()[name = tensor<string, []>("gather_16_indices_0"), val = tensor<int32, []>(1)];
            tensor<int32, []> gather_16_axis_0 = const()[name = tensor<string, []>("gather_16_axis_0"), val = tensor<int32, []>(0)];
            tensor<int32, []> gather_16 = gather(axis = gather_16_axis_0, indices = gather_16_indices_0, x = var_196_shape_cast);
            tensor<int32, []> concat_9_axis_0 = const()[name = tensor<string, []>("concat_9_axis_0"), val = tensor<int32, []>(0)];
            tensor<bool, []> concat_9_interleave_0 = const()[name = tensor<string, []>("concat_9_interleave_0"), val = tensor<bool, []>(false)];
            tensor<int32, [4]> concat_9 = concat(axis = concat_9_axis_0, interleave = concat_9_interleave_0, values = (gather_15, gather_16, var_7, var_6));
            tensor<fp16, [?, ?, 12, 32]> x_23_cast = reshape(shape = concat_9, x = x_21_cast);
            tensor<bool, []> attention_scores_5_transpose_x_0 = const()[name = tensor<string, []>("attention_scores_5_transpose_x_0"), val = tensor<bool, []>(false)];
            tensor<bool, []> attention_scores_5_transpose_y_0 = const()[name = tensor<string, []>("attention_scores_5_transpose_y_0"), val = tensor<bool, []>(false)];
            tensor<int32, [4]> transpose_14_perm_0 = const()[name = tensor<string, []>("transpose_14_perm_0"), val = tensor<int32, [4]>([0, 2, 1, 3])];
            tensor<int32, [4]> transpose_15_perm_0 = const()[name = tensor<string, []>("transpose_15_perm_0"), val = tensor<int32, [4]>([0, 2, 3, 1])];
            tensor<fp16, [?, 12, 32, ?]> transpose_77 = transpose(perm = transpose_15_perm_0, x = x_15_cast);
            tensor<fp16, [?, 12, ?, 32]> transpose_78 = transpose(perm = transpose_14_perm_0, x = x_23_cast);
            tensor<fp16, [?, 12, ?, ?]> attention_scores_5_cast = matmul(transpose_x = attention_scores_5_transpose_x_0, transpose_y = attention_scores_5_transpose_y_0, x = transpose_78, y = transpose_77);
            tensor<fp16, []> _inversed_attention_scores_7_y_0_to_fp16 = const()[name = tensor<string, []>("_inversed_attention_scores_7_y_0_to_fp16"), val = tensor<fp16, []>(0x1.6ap-3)];
            tensor<fp16, [?, 12, ?, ?]> _inversed_attention_scores_7_cast = mul(x = attention_scores_5_cast, y = _inversed_attention_scores_7_y_0_to_fp16);
            tensor<fp16, [?, 12, ?, ?]> input_33_cast = add(x = _inversed_attention_scores_7_cast, y = cast_356);
            tensor<fp16, [?, 12, ?, ?]> input_35_cast = softmax(axis = var_8, x = input_33_cast);
            tensor<bool, []> context_layer_5_transpose_x_0 = const()[name = tensor<string, []>("context_layer_5_transpose_x_0"), val = tensor<bool, []>(false)];
            tensor<bool, []> context_layer_5_transpose_y_0 = const()[name = tensor<string, []>("context_layer_5_transpose_y_0"), val = tensor<bool, []>(false)];
            tensor<fp16, [?, 12, ?, 32]> transpose_79 = transpose(perm = var_194, x = x_19_cast);
            tensor<fp16, [?, 12, ?, 32]> context_layer_5_cast = matmul(transpose_x = context_layer_5_transpose_x_0, transpose_y = context_layer_5_transpose_y_0, x = input_35_cast, y = transpose_79);
            tensor<int32, [4]> var_210 = const()[name = tensor<string, []>("op_210"), val = tensor<int32, [4]>([0, 2, 1, 3])];
            tensor<fp16, [?, ?, 12, 32]> transpose_76 = transpose(perm = var_210, x = context_layer_5_cast);
            tensor<int32, [4]> var_213_shape_cast = shape(x = transpose_76);
            tensor<int32, []> gather_17_indices_0 = const()[name = tensor<string, []>("gather_17_indices_0"), val = tensor<int32, []>(0)];
            tensor<int32, []> gather_17_axis_0 = const()[name = tensor<string, []>("gather_17_axis_0"), val = tensor<int32, []>(0)];
            tensor<int32, []> gather_17 = gather(axis = gather_17_axis_0, indices = gather_17_indices_0, x = var_213_shape_cast);
            tensor<int32, []> gather_18_indices_0 = const()[name = tensor<string, []>("gather_18_indices_0"), val = tensor<int32, []>(1)];
            tensor<int32, []> gather_18_axis_0 = const()[name = tensor<string, []>("gather_18_axis_0"), val = tensor<int32, []>(0)];
            tensor<int32, []> gather_18 = gather(axis = gather_18_axis_0, indices = gather_18_indices_0, x = var_213_shape_cast);
            tensor<int32, []> concat_10_axis_0 = const()[name = tensor<string, []>("concat_10_axis_0"), val = tensor<int32, []>(0)];
            tensor<bool, []> concat_10_interleave_0 = const()[name = tensor<string, []>("concat_10_interleave_0"), val = tensor<bool, []>(false)];
            tensor<int32, [3]> concat_10 = concat(axis = concat_10_axis_0, interleave = concat_10_interleave_0, values = (gather_17, gather_18, var_11));
            tensor<fp16, [?, ?, 384]> input_37_cast = reshape(shape = concat_10, x = transpose_76);
            tensor<fp16, [384, 384]> model_encoder_layer_1_attention_output_dense_weight_to_fp16 = const()[name = tensor<string, []>("model_encoder_layer_1_attention_output_dense_weight_to_fp16"), val = tensor<fp16, [384, 384]>(BLOBFILE(path = tensor<string, []>("@model_path/weights/weight.bin"), offset = tensor<uint64, []>(196862464)))];
            tensor<fp16, [384]> model_encoder_layer_1_attention_output_dense_bias_to_fp16 = const()[name = tensor<string, []>("model_encoder_layer_1_attention_output_dense_bias_to_fp16"), val = tensor<fp16, [384]>(BLOBFILE(path = tensor<string, []>("@model_path/weights/weight.bin"), offset = tensor<uint64, []>(197157440)))];
            tensor<fp16, [?, ?, 384]> input_39_cast = linear(bias = model_encoder_layer_1_attention_output_dense_bias_to_fp16, weight = model_encoder_layer_1_attention_output_dense_weight_to_fp16, x = input_37_cast);
            tensor<fp16, [?, ?, 384]> input_41_cast = add(x = input_39_cast, y = input_31_cast);
            tensor<int32, [1]> input_43_axes_0 = const()[name = tensor<string, []>("input_43_axes_0"), val = tensor<int32, [1]>([-1])];
            tensor<fp16, [384]> model_encoder_layer_1_attention_output_LayerNorm_weight_to_fp16 = const()[name = tensor<string, []>("model_encoder_layer_1_attention_output_LayerNorm_weight_to_fp16"), val = tensor<fp16, [384]>(BLOBFILE(path = tensor<string, []>("@model_path/weights/weight.bin"), offset = tensor<uint64, []>(197158272)))];
            tensor<fp16, [384]> model_encoder_layer_1_attention_output_LayerNorm_bias_to_fp16 = const()[name = tensor<string, []>("model_encoder_layer_1_attention_output_LayerNorm_bias_to_fp16"), val = tensor<fp16, [384]>(BLOBFILE(path = tensor<string, []>("@model_path/weights/weight.bin"), offset = tensor<uint64, []>(197159104)))];
            tensor<fp16, [?, ?, 384]> input_43_cast = layer_norm(axes = input_43_axes_0, beta = model_encoder_layer_1_attention_output_LayerNorm_bias_to_fp16, epsilon = var_10_to_fp16, gamma = model_encoder_layer_1_attention_output_LayerNorm_weight_to_fp16, x = input_41_cast);
            tensor<fp16, [1536, 384]> model_encoder_layer_1_intermediate_dense_weight_to_fp16 = const()[name = tensor<string, []>("model_encoder_layer_1_intermediate_dense_weight_to_fp16"), val = tensor<fp16, [1536, 384]>(BLOBFILE(path = tensor<string, []>("@model_path/weights/weight.bin"), offset = tensor<uint64, []>(197159936)))];
            tensor<fp16, [1536]> model_encoder_layer_1_intermediate_dense_bias_to_fp16 = const()[name = tensor<string, []>("model_encoder_layer_1_intermediate_dense_bias_to_fp16"), val = tensor<fp16, [1536]>(BLOBFILE(path = tensor<string, []>("@model_path/weights/weight.bin"), offset = tensor<uint64, []>(198339648)))];
            tensor<fp16, [?, ?, 1536]> input_45_cast = linear(bias = model_encoder_layer_1_intermediate_dense_bias_to_fp16, weight = model_encoder_layer_1_intermediate_dense_weight_to_fp16, x = input_43_cast);
            tensor<string, []> input_47_mode_0 = const()[name = tensor<string, []>("input_47_mode_0"), val = tensor<string, []>("EXACT")];
            tensor<fp16, [?, ?, 1536]> input_47_cast = gelu(mode = input_47_mode_0, x = input_45_cast);
            tensor<fp16, [384, 1536]> model_encoder_layer_1_output_dense_weight_to_fp16 = const()[name = tensor<string, []>("model_encoder_layer_1_output_dense_weight_to_fp16"), val = tensor<fp16, [384, 1536]>(BLOBFILE(path = tensor<string, []>("@model_path/weights/weight.bin"), offset = tensor<uint64, []>(198342784)))];
            tensor<fp16, [384]> model_encoder_layer_1_output_dense_bias_to_fp16 = const()[name = tensor<string, []>("model_encoder_layer_1_output_dense_bias_to_fp16"), val = tensor<fp16, [384]>(BLOBFILE(path = tensor<string, []>("@model_path/weights/weight.bin"), offset = tensor<uint64, []>(199522496)))];
            tensor<fp16, [?, ?, 384]> input_49_cast = linear(bias = model_encoder_layer_1_output_dense_bias_to_fp16, weight = model_encoder_layer_1_output_dense_weight_to_fp16, x = input_47_cast);
            tensor<fp16, [?, ?, 384]> input_51_cast = add(x = input_49_cast, y = input_43_cast);
            tensor<int32, [1]> input_53_axes_0 = const()[name = tensor<string, []>("input_53_axes_0"), val = tensor<int32, [1]>([-1])];
            tensor<fp16, [384]> model_encoder_layer_1_output_LayerNorm_weight_to_fp16 = const()[name = tensor<string, []>("model_encoder_layer_1_output_LayerNorm_weight_to_fp16"), val = tensor<fp16, [384]>(BLOBFILE(path = tensor<string, []>("@model_path/weights/weight.bin"), offset = tensor<uint64, []>(199523328)))];
            tensor<fp16, [384]> model_encoder_layer_1_output_LayerNorm_bias_to_fp16 = const()[name = tensor<string, []>("model_encoder_layer_1_output_LayerNorm_bias_to_fp16"), val = tensor<fp16, [384]>(BLOBFILE(path = tensor<string, []>("@model_path/weights/weight.bin"), offset = tensor<uint64, []>(199524160)))];
            tensor<fp16, [?, ?, 384]> input_53_cast = layer_norm(axes = input_53_axes_0, beta = model_encoder_layer_1_output_LayerNorm_bias_to_fp16, epsilon = var_10_to_fp16, gamma = model_encoder_layer_1_output_LayerNorm_weight_to_fp16, x = input_51_cast);
            tensor<fp16, [384, 384]> model_encoder_layer_2_attention_self_query_weight_to_fp16 = const()[name = tensor<string, []>("model_encoder_layer_2_attention_self_query_weight_to_fp16"), val = tensor<fp16, [384, 384]>(BLOBFILE(path = tensor<string, []>("@model_path/weights/weight.bin"), offset = tensor<uint64, []>(199524992)))];
            tensor<fp16, [384]> model_encoder_layer_2_attention_self_query_bias_to_fp16 = const()[name = tensor<string, []>("model_encoder_layer_2_attention_self_query_bias_to_fp16"), val = tensor<fp16, [384]>(BLOBFILE(path = tensor<string, []>("@model_path/weights/weight.bin"), offset = tensor<uint64, []>(199819968)))];
            tensor<fp16, [?, ?, 384]> x_33_cast = linear(bias = model_encoder_layer_2_attention_self_query_bias_to_fp16, weight = model_encoder_layer_2_attention_self_query_weight_to_fp16, x = input_53_cast);
            tensor<fp16, [384, 384]> model_encoder_layer_2_attention_self_key_weight_to_fp16 = const()[name = tensor<string, []>("model_encoder_layer_2_attention_self_key_weight_to_fp16"), val = tensor<fp16, [384, 384]>(BLOBFILE(path = tensor<string, []>("@model_path/weights/weight.bin"), offset = tensor<uint64, []>(199820800)))];
            tensor<fp16, [384]> model_encoder_layer_2_attention_self_key_bias_to_fp16 = const()[name = tensor<string, []>("model_encoder_layer_2_attention_self_key_bias_to_fp16"), val = tensor<fp16, [384]>(BLOBFILE(path = tensor<string, []>("@model_path/weights/weight.bin"), offset = tensor<uint64, []>(200115776)))];
            tensor<fp16, [?, ?, 384]> x_25_cast = linear(bias = model_encoder_layer_2_attention_self_key_bias_to_fp16, weight = model_encoder_layer_2_attention_self_key_weight_to_fp16, x = input_53_cast);
            tensor<int32, [3]> var_258_shape_cast = shape(x = x_25_cast);
            tensor<int32, []> gather_19_indices_0 = const()[name = tensor<string, []>("gather_19_indices_0"), val = tensor<int32, []>(0)];
            tensor<int32, []> gather_19_axis_0 = const()[name = tensor<string, []>("gather_19_axis_0"), val = tensor<int32, []>(0)];
            tensor<int32, []> gather_19 = gather(axis = gather_19_axis_0, indices = gather_19_indices_0, x = var_258_shape_cast);
            tensor<int32, []> gather_20_indices_0 = const()[name = tensor<string, []>("gather_20_indices_0"), val = tensor<int32, []>(1)];
            tensor<int32, []> gather_20_axis_0 = const()[name = tensor<string, []>("gather_20_axis_0"), val = tensor<int32, []>(0)];
            tensor<int32, []> gather_20 = gather(axis = gather_20_axis_0, indices = gather_20_indices_0, x = var_258_shape_cast);
            tensor<int32, []> concat_11_axis_0 = const()[name = tensor<string, []>("concat_11_axis_0"), val = tensor<int32, []>(0)];
            tensor<bool, []> concat_11_interleave_0 = const()[name = tensor<string, []>("concat_11_interleave_0"), val = tensor<bool, []>(false)];
            tensor<int32, [4]> concat_11 = concat(axis = concat_11_axis_0, interleave = concat_11_interleave_0, values = (gather_19, gather_20, var_7, var_6));
            tensor<fp16, [?, ?, 12, 32]> x_27_cast = reshape(shape = concat_11, x = x_25_cast);
            tensor<fp16, [384, 384]> model_encoder_layer_2_attention_self_value_weight_to_fp16 = const()[name = tensor<string, []>("model_encoder_layer_2_attention_self_value_weight_to_fp16"), val = tensor<fp16, [384, 384]>(BLOBFILE(path = tensor<string, []>("@model_path/weights/weight.bin"), offset = tensor<uint64, []>(200116608)))];
            tensor<fp16, [384]> model_encoder_layer_2_attention_self_value_bias_to_fp16 = const()[name = tensor<string, []>("model_encoder_layer_2_attention_self_value_bias_to_fp16"), val = tensor<fp16, [384]>(BLOBFILE(path = tensor<string, []>("@model_path/weights/weight.bin"), offset = tensor<uint64, []>(200411584)))];
            tensor<fp16, [?, ?, 384]> x_29_cast = linear(bias = model_encoder_layer_2_attention_self_value_bias_to_fp16, weight = model_encoder_layer_2_attention_self_value_weight_to_fp16, x = input_53_cast);
            tensor<int32, [3]> var_267_shape_cast = shape(x = x_29_cast);
            tensor<int32, []> gather_21_indices_0 = const()[name = tensor<string, []>("gather_21_indices_0"), val = tensor<int32, []>(0)];
            tensor<int32, []> gather_21_axis_0 = const()[name = tensor<string, []>("gather_21_axis_0"), val = tensor<int32, []>(0)];
            tensor<int32, []> gather_21 = gather(axis = gather_21_axis_0, indices = gather_21_indices_0, x = var_267_shape_cast);
            tensor<int32, []> gather_22_indices_0 = const()[name = tensor<string, []>("gather_22_indices_0"), val = tensor<int32, []>(1)];
            tensor<int32, []> gather_22_axis_0 = const()[name = tensor<string, []>("gather_22_axis_0"), val = tensor<int32, []>(0)];
            tensor<int32, []> gather_22 = gather(axis = gather_22_axis_0, indices = gather_22_indices_0, x = var_267_shape_cast);
            tensor<int32, []> concat_12_axis_0 = const()[name = tensor<string, []>("concat_12_axis_0"), val = tensor<int32, []>(0)];
            tensor<bool, []> concat_12_interleave_0 = const()[name = tensor<string, []>("concat_12_interleave_0"), val = tensor<bool, []>(false)];
            tensor<int32, [4]> concat_12 = concat(axis = concat_12_axis_0, interleave = concat_12_interleave_0, values = (gather_21, gather_22, var_7, var_6));
            tensor<fp16, [?, ?, 12, 32]> x_31_cast = reshape(shape = concat_12, x = x_29_cast);
            tensor<int32, [4]> var_271 = const()[name = tensor<string, []>("op_271"), val = tensor<int32, [4]>([0, 2, 1, 3])];
            tensor<int32, [3]> var_273_shape_cast = shape(x = x_33_cast);
            tensor<int32, []> gather_23_indices_0 = const()[name = tensor<string, []>("gather_23_indices_0"), val = tensor<int32, []>(0)];
            tensor<int32, []> gather_23_axis_0 = const()[name = tensor<string, []>("gather_23_axis_0"), val = tensor<int32, []>(0)];
            tensor<int32, []> gather_23 = gather(axis = gather_23_axis_0, indices = gather_23_indices_0, x = var_273_shape_cast);
            tensor<int32, []> gather_24_indices_0 = const()[name = tensor<string, []>("gather_24_indices_0"), val = tensor<int32, []>(1)];
            tensor<int32, []> gather_24_axis_0 = const()[name = tensor<string, []>("gather_24_axis_0"), val = tensor<int32, []>(0)];
            tensor<int32, []> gather_24 = gather(axis = gather_24_axis_0, indices = gather_24_indices_0, x = var_273_shape_cast);
            tensor<int32, []> concat_13_axis_0 = const()[name = tensor<string, []>("concat_13_axis_0"), val = tensor<int32, []>(0)];
            tensor<bool, []> concat_13_interleave_0 = const()[name = tensor<string, []>("concat_13_interleave_0"), val = tensor<bool, []>(false)];
            tensor<int32, [4]> concat_13 = concat(axis = concat_13_axis_0, interleave = concat_13_interleave_0, values = (gather_23, gather_24, var_7, var_6));
            tensor<fp16, [?, ?, 12, 32]> x_35_cast = reshape(shape = concat_13, x = x_33_cast);
            tensor<bool, []> attention_scores_9_transpose_x_0 = const()[name = tensor<string, []>("attention_scores_9_transpose_x_0"), val = tensor<bool, []>(false)];
            tensor<bool, []> attention_scores_9_transpose_y_0 = const()[name = tensor<string, []>("attention_scores_9_transpose_y_0"), val = tensor<bool, []>(false)];
            tensor<int32, [4]> transpose_16_perm_0 = const()[name = tensor<string, []>("transpose_16_perm_0"), val = tensor<int32, [4]>([0, 2, 1, 3])];
            tensor<int32, [4]> transpose_17_perm_0 = const()[name = tensor<string, []>("transpose_17_perm_0"), val = tensor<int32, [4]>([0, 2, 3, 1])];
            tensor<fp16, [?, 12, 32, ?]> transpose_73 = transpose(perm = transpose_17_perm_0, x = x_27_cast);
            tensor<fp16, [?, 12, ?, 32]> transpose_74 = transpose(perm = transpose_16_perm_0, x = x_35_cast);
            tensor<fp16, [?, 12, ?, ?]> attention_scores_9_cast = matmul(transpose_x = attention_scores_9_transpose_x_0, transpose_y = attention_scores_9_transpose_y_0, x = transpose_74, y = transpose_73);
            tensor<fp16, []> _inversed_attention_scores_11_y_0_to_fp16 = const()[name = tensor<string, []>("_inversed_attention_scores_11_y_0_to_fp16"), val = tensor<fp16, []>(0x1.6ap-3)];
            tensor<fp16, [?, 12, ?, ?]> _inversed_attention_scores_11_cast = mul(x = attention_scores_9_cast, y = _inversed_attention_scores_11_y_0_to_fp16);
            tensor<fp16, [?, 12, ?, ?]> input_55_cast = add(x = _inversed_attention_scores_11_cast, y = cast_356);
            tensor<fp16, [?, 12, ?, ?]> input_57_cast = softmax(axis = var_8, x = input_55_cast);
            tensor<bool, []> context_layer_9_transpose_x_0 = const()[name = tensor<string, []>("context_layer_9_transpose_x_0"), val = tensor<bool, []>(false)];
            tensor<bool, []> context_layer_9_transpose_y_0 = const()[name = tensor<string, []>("context_layer_9_transpose_y_0"), val = tensor<bool, []>(false)];
            tensor<fp16, [?, 12, ?, 32]> transpose_75 = transpose(perm = var_271, x = x_31_cast);
            tensor<fp16, [?, 12, ?, 32]> context_layer_9_cast = matmul(transpose_x = context_layer_9_transpose_x_0, transpose_y = context_layer_9_transpose_y_0, x = input_57_cast, y = transpose_75);
            tensor<int32, [4]> var_287 = const()[name = tensor<string, []>("op_287"), val = tensor<int32, [4]>([0, 2, 1, 3])];
            tensor<fp16, [?, ?, 12, 32]> transpose_72 = transpose(perm = var_287, x = context_layer_9_cast);
            tensor<int32, [4]> var_290_shape_cast = shape(x = transpose_72);
            tensor<int32, []> gather_25_indices_0 = const()[name = tensor<string, []>("gather_25_indices_0"), val = tensor<int32, []>(0)];
            tensor<int32, []> gather_25_axis_0 = const()[name = tensor<string, []>("gather_25_axis_0"), val = tensor<int32, []>(0)];
            tensor<int32, []> gather_25 = gather(axis = gather_25_axis_0, indices = gather_25_indices_0, x = var_290_shape_cast);
            tensor<int32, []> gather_26_indices_0 = const()[name = tensor<string, []>("gather_26_indices_0"), val = tensor<int32, []>(1)];
            tensor<int32, []> gather_26_axis_0 = const()[name = tensor<string, []>("gather_26_axis_0"), val = tensor<int32, []>(0)];
            tensor<int32, []> gather_26 = gather(axis = gather_26_axis_0, indices = gather_26_indices_0, x = var_290_shape_cast);
            tensor<int32, []> concat_14_axis_0 = const()[name = tensor<string, []>("concat_14_axis_0"), val = tensor<int32, []>(0)];
            tensor<bool, []> concat_14_interleave_0 = const()[name = tensor<string, []>("concat_14_interleave_0"), val = tensor<bool, []>(false)];
            tensor<int32, [3]> concat_14 = concat(axis = concat_14_axis_0, interleave = concat_14_interleave_0, values = (gather_25, gather_26, var_11));
            tensor<fp16, [?, ?, 384]> input_59_cast = reshape(shape = concat_14, x = transpose_72);
            tensor<fp16, [384, 384]> model_encoder_layer_2_attention_output_dense_weight_to_fp16 = const()[name = tensor<string, []>("model_encoder_layer_2_attention_output_dense_weight_to_fp16"), val = tensor<fp16, [384, 384]>(BLOBFILE(path = tensor<string, []>("@model_path/weights/weight.bin"), offset = tensor<uint64, []>(200412416)))];
            tensor<fp16, [384]> model_encoder_layer_2_attention_output_dense_bias_to_fp16 = const()[name = tensor<string, []>("model_encoder_layer_2_attention_output_dense_bias_to_fp16"), val = tensor<fp16, [384]>(BLOBFILE(path = tensor<string, []>("@model_path/weights/weight.bin"), offset = tensor<uint64, []>(200707392)))];
            tensor<fp16, [?, ?, 384]> input_61_cast = linear(bias = model_encoder_layer_2_attention_output_dense_bias_to_fp16, weight = model_encoder_layer_2_attention_output_dense_weight_to_fp16, x = input_59_cast);
            tensor<fp16, [?, ?, 384]> input_63_cast = add(x = input_61_cast, y = input_53_cast);
            tensor<int32, [1]> input_65_axes_0 = const()[name = tensor<string, []>("input_65_axes_0"), val = tensor<int32, [1]>([-1])];
            tensor<fp16, [384]> model_encoder_layer_2_attention_output_LayerNorm_weight_to_fp16 = const()[name = tensor<string, []>("model_encoder_layer_2_attention_output_LayerNorm_weight_to_fp16"), val = tensor<fp16, [384]>(BLOBFILE(path = tensor<string, []>("@model_path/weights/weight.bin"), offset = tensor<uint64, []>(200708224)))];
            tensor<fp16, [384]> model_encoder_layer_2_attention_output_LayerNorm_bias_to_fp16 = const()[name = tensor<string, []>("model_encoder_layer_2_attention_output_LayerNorm_bias_to_fp16"), val = tensor<fp16, [384]>(BLOBFILE(path = tensor<string, []>("@model_path/weights/weight.bin"), offset = tensor<uint64, []>(200709056)))];
            tensor<fp16, [?, ?, 384]> input_65_cast = layer_norm(axes = input_65_axes_0, beta = model_encoder_layer_2_attention_output_LayerNorm_bias_to_fp16, epsilon = var_10_to_fp16, gamma = model_encoder_layer_2_attention_output_LayerNorm_weight_to_fp16, x = input_63_cast);
            tensor<fp16, [1536, 384]> model_encoder_layer_2_intermediate_dense_weight_to_fp16 = const()[name = tensor<string, []>("model_encoder_layer_2_intermediate_dense_weight_to_fp16"), val = tensor<fp16, [1536, 384]>(BLOBFILE(path = tensor<string, []>("@model_path/weights/weight.bin"), offset = tensor<uint64, []>(200709888)))];
            tensor<fp16, [1536]> model_encoder_layer_2_intermediate_dense_bias_to_fp16 = const()[name = tensor<string, []>("model_encoder_layer_2_intermediate_dense_bias_to_fp16"), val = tensor<fp16, [1536]>(BLOBFILE(path = tensor<string, []>("@model_path/weights/weight.bin"), offset = tensor<uint64, []>(201889600)))];
            tensor<fp16, [?, ?, 1536]> input_67_cast = linear(bias = model_encoder_layer_2_intermediate_dense_bias_to_fp16, weight = model_encoder_layer_2_intermediate_dense_weight_to_fp16, x = input_65_cast);
            tensor<string, []> input_69_mode_0 = const()[name = tensor<string, []>("input_69_mode_0"), val = tensor<string, []>("EXACT")];
            tensor<fp16, [?, ?, 1536]> input_69_cast = gelu(mode = input_69_mode_0, x = input_67_cast);
            tensor<fp16, [384, 1536]> model_encoder_layer_2_output_dense_weight_to_fp16 = const()[name = tensor<string, []>("model_encoder_layer_2_output_dense_weight_to_fp16"), val = tensor<fp16, [384, 1536]>(BLOBFILE(path = tensor<string, []>("@model_path/weights/weight.bin"), offset = tensor<uint64, []>(201892736)))];
            tensor<fp16, [384]> model_encoder_layer_2_output_dense_bias_to_fp16 = const()[name = tensor<string, []>("model_encoder_layer_2_output_dense_bias_to_fp16"), val = tensor<fp16, [384]>(BLOBFILE(path = tensor<string, []>("@model_path/weights/weight.bin"), offset = tensor<uint64, []>(203072448)))];
            tensor<fp16, [?, ?, 384]> input_71_cast = linear(bias = model_encoder_layer_2_output_dense_bias_to_fp16, weight = model_encoder_layer_2_output_dense_weight_to_fp16, x = input_69_cast);
            tensor<fp16, [?, ?, 384]> input_73_cast = add(x = input_71_cast, y = input_65_cast);
            tensor<int32, [1]> input_75_axes_0 = const()[name = tensor<string, []>("input_75_axes_0"), val = tensor<int32, [1]>([-1])];
            tensor<fp16, [384]> model_encoder_layer_2_output_LayerNorm_weight_to_fp16 = const()[name = tensor<string, []>("model_encoder_layer_2_output_LayerNorm_weight_to_fp16"), val = tensor<fp16, [384]>(BLOBFILE(path = tensor<string, []>("@model_path/weights/weight.bin"), offset = tensor<uint64, []>(203073280)))];
            tensor<fp16, [384]> model_encoder_layer_2_output_LayerNorm_bias_to_fp16 = const()[name = tensor<string, []>("model_encoder_layer_2_output_LayerNorm_bias_to_fp16"), val = tensor<fp16, [384]>(BLOBFILE(path = tensor<string, []>("@model_path/weights/weight.bin"), offset = tensor<uint64, []>(203074112)))];
            tensor<fp16, [?, ?, 384]> input_75_cast = layer_norm(axes = input_75_axes_0, beta = model_encoder_layer_2_output_LayerNorm_bias_to_fp16, epsilon = var_10_to_fp16, gamma = model_encoder_layer_2_output_LayerNorm_weight_to_fp16, x = input_73_cast);
            tensor<fp16, [384, 384]> model_encoder_layer_3_attention_self_query_weight_to_fp16 = const()[name = tensor<string, []>("model_encoder_layer_3_attention_self_query_weight_to_fp16"), val = tensor<fp16, [384, 384]>(BLOBFILE(path = tensor<string, []>("@model_path/weights/weight.bin"), offset = tensor<uint64, []>(203074944)))];
            tensor<fp16, [384]> model_encoder_layer_3_attention_self_query_bias_to_fp16 = const()[name = tensor<string, []>("model_encoder_layer_3_attention_self_query_bias_to_fp16"), val = tensor<fp16, [384]>(BLOBFILE(path = tensor<string, []>("@model_path/weights/weight.bin"), offset = tensor<uint64, []>(203369920)))];
            tensor<fp16, [?, ?, 384]> x_45_cast = linear(bias = model_encoder_layer_3_attention_self_query_bias_to_fp16, weight = model_encoder_layer_3_attention_self_query_weight_to_fp16, x = input_75_cast);
            tensor<fp16, [384, 384]> model_encoder_layer_3_attention_self_key_weight_to_fp16 = const()[name = tensor<string, []>("model_encoder_layer_3_attention_self_key_weight_to_fp16"), val = tensor<fp16, [384, 384]>(BLOBFILE(path = tensor<string, []>("@model_path/weights/weight.bin"), offset = tensor<uint64, []>(203370752)))];
            tensor<fp16, [384]> model_encoder_layer_3_attention_self_key_bias_to_fp16 = const()[name = tensor<string, []>("model_encoder_layer_3_attention_self_key_bias_to_fp16"), val = tensor<fp16, [384]>(BLOBFILE(path = tensor<string, []>("@model_path/weights/weight.bin"), offset = tensor<uint64, []>(203665728)))];
            tensor<fp16, [?, ?, 384]> x_37_cast = linear(bias = model_encoder_layer_3_attention_self_key_bias_to_fp16, weight = model_encoder_layer_3_attention_self_key_weight_to_fp16, x = input_75_cast);
            tensor<int32, [3]> var_335_shape_cast = shape(x = x_37_cast);
            tensor<int32, []> gather_27_indices_0 = const()[name = tensor<string, []>("gather_27_indices_0"), val = tensor<int32, []>(0)];
            tensor<int32, []> gather_27_axis_0 = const()[name = tensor<string, []>("gather_27_axis_0"), val = tensor<int32, []>(0)];
            tensor<int32, []> gather_27 = gather(axis = gather_27_axis_0, indices = gather_27_indices_0, x = var_335_shape_cast);
            tensor<int32, []> gather_28_indices_0 = const()[name = tensor<string, []>("gather_28_indices_0"), val = tensor<int32, []>(1)];
            tensor<int32, []> gather_28_axis_0 = const()[name = tensor<string, []>("gather_28_axis_0"), val = tensor<int32, []>(0)];
            tensor<int32, []> gather_28 = gather(axis = gather_28_axis_0, indices = gather_28_indices_0, x = var_335_shape_cast);
            tensor<int32, []> concat_15_axis_0 = const()[name = tensor<string, []>("concat_15_axis_0"), val = tensor<int32, []>(0)];
            tensor<bool, []> concat_15_interleave_0 = const()[name = tensor<string, []>("concat_15_interleave_0"), val = tensor<bool, []>(false)];
            tensor<int32, [4]> concat_15 = concat(axis = concat_15_axis_0, interleave = concat_15_interleave_0, values = (gather_27, gather_28, var_7, var_6));
            tensor<fp16, [?, ?, 12, 32]> x_39_cast = reshape(shape = concat_15, x = x_37_cast);
            tensor<fp16, [384, 384]> model_encoder_layer_3_attention_self_value_weight_to_fp16 = const()[name = tensor<string, []>("model_encoder_layer_3_attention_self_value_weight_to_fp16"), val = tensor<fp16, [384, 384]>(BLOBFILE(path = tensor<string, []>("@model_path/weights/weight.bin"), offset = tensor<uint64, []>(203666560)))];
            tensor<fp16, [384]> model_encoder_layer_3_attention_self_value_bias_to_fp16 = const()[name = tensor<string, []>("model_encoder_layer_3_attention_self_value_bias_to_fp16"), val = tensor<fp16, [384]>(BLOBFILE(path = tensor<string, []>("@model_path/weights/weight.bin"), offset = tensor<uint64, []>(203961536)))];
            tensor<fp16, [?, ?, 384]> x_41_cast = linear(bias = model_encoder_layer_3_attention_self_value_bias_to_fp16, weight = model_encoder_layer_3_attention_self_value_weight_to_fp16, x = input_75_cast);
            tensor<int32, [3]> var_344_shape_cast = shape(x = x_41_cast);
            tensor<int32, []> gather_29_indices_0 = const()[name = tensor<string, []>("gather_29_indices_0"), val = tensor<int32, []>(0)];
            tensor<int32, []> gather_29_axis_0 = const()[name = tensor<string, []>("gather_29_axis_0"), val = tensor<int32, []>(0)];
            tensor<int32, []> gather_29 = gather(axis = gather_29_axis_0, indices = gather_29_indices_0, x = var_344_shape_cast);
            tensor<int32, []> gather_30_indices_0 = const()[name = tensor<string, []>("gather_30_indices_0"), val = tensor<int32, []>(1)];
            tensor<int32, []> gather_30_axis_0 = const()[name = tensor<string, []>("gather_30_axis_0"), val = tensor<int32, []>(0)];
            tensor<int32, []> gather_30 = gather(axis = gather_30_axis_0, indices = gather_30_indices_0, x = var_344_shape_cast);
            tensor<int32, []> concat_16_axis_0 = const()[name = tensor<string, []>("concat_16_axis_0"), val = tensor<int32, []>(0)];
            tensor<bool, []> concat_16_interleave_0 = const()[name = tensor<string, []>("concat_16_interleave_0"), val = tensor<bool, []>(false)];
            tensor<int32, [4]> concat_16 = concat(axis = concat_16_axis_0, interleave = concat_16_interleave_0, values = (gather_29, gather_30, var_7, var_6));
            tensor<fp16, [?, ?, 12, 32]> x_43_cast = reshape(shape = concat_16, x = x_41_cast);
            tensor<int32, [4]> var_348 = const()[name = tensor<string, []>("op_348"), val = tensor<int32, [4]>([0, 2, 1, 3])];
            tensor<int32, [3]> var_350_shape_cast = shape(x = x_45_cast);
            tensor<int32, []> gather_31_indices_0 = const()[name = tensor<string, []>("gather_31_indices_0"), val = tensor<int32, []>(0)];
            tensor<int32, []> gather_31_axis_0 = const()[name = tensor<string, []>("gather_31_axis_0"), val = tensor<int32, []>(0)];
            tensor<int32, []> gather_31 = gather(axis = gather_31_axis_0, indices = gather_31_indices_0, x = var_350_shape_cast);
            tensor<int32, []> gather_32_indices_0 = const()[name = tensor<string, []>("gather_32_indices_0"), val = tensor<int32, []>(1)];
            tensor<int32, []> gather_32_axis_0 = const()[name = tensor<string, []>("gather_32_axis_0"), val = tensor<int32, []>(0)];
            tensor<int32, []> gather_32 = gather(axis = gather_32_axis_0, indices = gather_32_indices_0, x = var_350_shape_cast);
            tensor<int32, []> concat_17_axis_0 = const()[name = tensor<string, []>("concat_17_axis_0"), val = tensor<int32, []>(0)];
            tensor<bool, []> concat_17_interleave_0 = const()[name = tensor<string, []>("concat_17_interleave_0"), val = tensor<bool, []>(false)];
            tensor<int32, [4]> concat_17 = concat(axis = concat_17_axis_0, interleave = concat_17_interleave_0, values = (gather_31, gather_32, var_7, var_6));
            tensor<fp16, [?, ?, 12, 32]> x_47_cast = reshape(shape = concat_17, x = x_45_cast);
            tensor<bool, []> attention_scores_13_transpose_x_0 = const()[name = tensor<string, []>("attention_scores_13_transpose_x_0"), val = tensor<bool, []>(false)];
            tensor<bool, []> attention_scores_13_transpose_y_0 = const()[name = tensor<string, []>("attention_scores_13_transpose_y_0"), val = tensor<bool, []>(false)];
            tensor<int32, [4]> transpose_18_perm_0 = const()[name = tensor<string, []>("transpose_18_perm_0"), val = tensor<int32, [4]>([0, 2, 1, 3])];
            tensor<int32, [4]> transpose_19_perm_0 = const()[name = tensor<string, []>("transpose_19_perm_0"), val = tensor<int32, [4]>([0, 2, 3, 1])];
            tensor<fp16, [?, 12, 32, ?]> transpose_69 = transpose(perm = transpose_19_perm_0, x = x_39_cast);
            tensor<fp16, [?, 12, ?, 32]> transpose_70 = transpose(perm = transpose_18_perm_0, x = x_47_cast);
            tensor<fp16, [?, 12, ?, ?]> attention_scores_13_cast = matmul(transpose_x = attention_scores_13_transpose_x_0, transpose_y = attention_scores_13_transpose_y_0, x = transpose_70, y = transpose_69);
            tensor<fp16, []> _inversed_attention_scores_15_y_0_to_fp16 = const()[name = tensor<string, []>("_inversed_attention_scores_15_y_0_to_fp16"), val = tensor<fp16, []>(0x1.6ap-3)];
            tensor<fp16, [?, 12, ?, ?]> _inversed_attention_scores_15_cast = mul(x = attention_scores_13_cast, y = _inversed_attention_scores_15_y_0_to_fp16);
            tensor<fp16, [?, 12, ?, ?]> input_77_cast = add(x = _inversed_attention_scores_15_cast, y = cast_356);
            tensor<fp16, [?, 12, ?, ?]> input_79_cast = softmax(axis = var_8, x = input_77_cast);
            tensor<bool, []> context_layer_13_transpose_x_0 = const()[name = tensor<string, []>("context_layer_13_transpose_x_0"), val = tensor<bool, []>(false)];
            tensor<bool, []> context_layer_13_transpose_y_0 = const()[name = tensor<string, []>("context_layer_13_transpose_y_0"), val = tensor<bool, []>(false)];
            tensor<fp16, [?, 12, ?, 32]> transpose_71 = transpose(perm = var_348, x = x_43_cast);
            tensor<fp16, [?, 12, ?, 32]> context_layer_13_cast = matmul(transpose_x = context_layer_13_transpose_x_0, transpose_y = context_layer_13_transpose_y_0, x = input_79_cast, y = transpose_71);
            tensor<int32, [4]> var_364 = const()[name = tensor<string, []>("op_364"), val = tensor<int32, [4]>([0, 2, 1, 3])];
            tensor<fp16, [?, ?, 12, 32]> transpose_68 = transpose(perm = var_364, x = context_layer_13_cast);
            tensor<int32, [4]> var_367_shape_cast = shape(x = transpose_68);
            tensor<int32, []> gather_33_indices_0 = const()[name = tensor<string, []>("gather_33_indices_0"), val = tensor<int32, []>(0)];
            tensor<int32, []> gather_33_axis_0 = const()[name = tensor<string, []>("gather_33_axis_0"), val = tensor<int32, []>(0)];
            tensor<int32, []> gather_33 = gather(axis = gather_33_axis_0, indices = gather_33_indices_0, x = var_367_shape_cast);
            tensor<int32, []> gather_34_indices_0 = const()[name = tensor<string, []>("gather_34_indices_0"), val = tensor<int32, []>(1)];
            tensor<int32, []> gather_34_axis_0 = const()[name = tensor<string, []>("gather_34_axis_0"), val = tensor<int32, []>(0)];
            tensor<int32, []> gather_34 = gather(axis = gather_34_axis_0, indices = gather_34_indices_0, x = var_367_shape_cast);
            tensor<int32, []> concat_18_axis_0 = const()[name = tensor<string, []>("concat_18_axis_0"), val = tensor<int32, []>(0)];
            tensor<bool, []> concat_18_interleave_0 = const()[name = tensor<string, []>("concat_18_interleave_0"), val = tensor<bool, []>(false)];
            tensor<int32, [3]> concat_18 = concat(axis = concat_18_axis_0, interleave = concat_18_interleave_0, values = (gather_33, gather_34, var_11));
            tensor<fp16, [?, ?, 384]> input_81_cast = reshape(shape = concat_18, x = transpose_68);
            tensor<fp16, [384, 384]> model_encoder_layer_3_attention_output_dense_weight_to_fp16 = const()[name = tensor<string, []>("model_encoder_layer_3_attention_output_dense_weight_to_fp16"), val = tensor<fp16, [384, 384]>(BLOBFILE(path = tensor<string, []>("@model_path/weights/weight.bin"), offset = tensor<uint64, []>(203962368)))];
            tensor<fp16, [384]> model_encoder_layer_3_attention_output_dense_bias_to_fp16 = const()[name = tensor<string, []>("model_encoder_layer_3_attention_output_dense_bias_to_fp16"), val = tensor<fp16, [384]>(BLOBFILE(path = tensor<string, []>("@model_path/weights/weight.bin"), offset = tensor<uint64, []>(204257344)))];
            tensor<fp16, [?, ?, 384]> input_83_cast = linear(bias = model_encoder_layer_3_attention_output_dense_bias_to_fp16, weight = model_encoder_layer_3_attention_output_dense_weight_to_fp16, x = input_81_cast);
            tensor<fp16, [?, ?, 384]> input_85_cast = add(x = input_83_cast, y = input_75_cast);
            tensor<int32, [1]> input_87_axes_0 = const()[name = tensor<string, []>("input_87_axes_0"), val = tensor<int32, [1]>([-1])];
            tensor<fp16, [384]> model_encoder_layer_3_attention_output_LayerNorm_weight_to_fp16 = const()[name = tensor<string, []>("model_encoder_layer_3_attention_output_LayerNorm_weight_to_fp16"), val = tensor<fp16, [384]>(BLOBFILE(path = tensor<string, []>("@model_path/weights/weight.bin"), offset = tensor<uint64, []>(204258176)))];
            tensor<fp16, [384]> model_encoder_layer_3_attention_output_LayerNorm_bias_to_fp16 = const()[name = tensor<string, []>("model_encoder_layer_3_attention_output_LayerNorm_bias_to_fp16"), val = tensor<fp16, [384]>(BLOBFILE(path = tensor<string, []>("@model_path/weights/weight.bin"), offset = tensor<uint64, []>(204259008)))];
            tensor<fp16, [?, ?, 384]> input_87_cast = layer_norm(axes = input_87_axes_0, beta = model_encoder_layer_3_attention_output_LayerNorm_bias_to_fp16, epsilon = var_10_to_fp16, gamma = model_encoder_layer_3_attention_output_LayerNorm_weight_to_fp16, x = input_85_cast);
            tensor<fp16, [1536, 384]> model_encoder_layer_3_intermediate_dense_weight_to_fp16 = const()[name = tensor<string, []>("model_encoder_layer_3_intermediate_dense_weight_to_fp16"), val = tensor<fp16, [1536, 384]>(BLOBFILE(path = tensor<string, []>("@model_path/weights/weight.bin"), offset = tensor<uint64, []>(204259840)))];
            tensor<fp16, [1536]> model_encoder_layer_3_intermediate_dense_bias_to_fp16 = const()[name = tensor<string, []>("model_encoder_layer_3_intermediate_dense_bias_to_fp16"), val = tensor<fp16, [1536]>(BLOBFILE(path = tensor<string, []>("@model_path/weights/weight.bin"), offset = tensor<uint64, []>(205439552)))];
            tensor<fp16, [?, ?, 1536]> input_89_cast = linear(bias = model_encoder_layer_3_intermediate_dense_bias_to_fp16, weight = model_encoder_layer_3_intermediate_dense_weight_to_fp16, x = input_87_cast);
            tensor<string, []> input_91_mode_0 = const()[name = tensor<string, []>("input_91_mode_0"), val = tensor<string, []>("EXACT")];
            tensor<fp16, [?, ?, 1536]> input_91_cast = gelu(mode = input_91_mode_0, x = input_89_cast);
            tensor<fp16, [384, 1536]> model_encoder_layer_3_output_dense_weight_to_fp16 = const()[name = tensor<string, []>("model_encoder_layer_3_output_dense_weight_to_fp16"), val = tensor<fp16, [384, 1536]>(BLOBFILE(path = tensor<string, []>("@model_path/weights/weight.bin"), offset = tensor<uint64, []>(205442688)))];
            tensor<fp16, [384]> model_encoder_layer_3_output_dense_bias_to_fp16 = const()[name = tensor<string, []>("model_encoder_layer_3_output_dense_bias_to_fp16"), val = tensor<fp16, [384]>(BLOBFILE(path = tensor<string, []>("@model_path/weights/weight.bin"), offset = tensor<uint64, []>(206622400)))];
            tensor<fp16, [?, ?, 384]> input_93_cast = linear(bias = model_encoder_layer_3_output_dense_bias_to_fp16, weight = model_encoder_layer_3_output_dense_weight_to_fp16, x = input_91_cast);
            tensor<fp16, [?, ?, 384]> input_95_cast = add(x = input_93_cast, y = input_87_cast);
            tensor<int32, [1]> input_97_axes_0 = const()[name = tensor<string, []>("input_97_axes_0"), val = tensor<int32, [1]>([-1])];
            tensor<fp16, [384]> model_encoder_layer_3_output_LayerNorm_weight_to_fp16 = const()[name = tensor<string, []>("model_encoder_layer_3_output_LayerNorm_weight_to_fp16"), val = tensor<fp16, [384]>(BLOBFILE(path = tensor<string, []>("@model_path/weights/weight.bin"), offset = tensor<uint64, []>(206623232)))];
            tensor<fp16, [384]> model_encoder_layer_3_output_LayerNorm_bias_to_fp16 = const()[name = tensor<string, []>("model_encoder_layer_3_output_LayerNorm_bias_to_fp16"), val = tensor<fp16, [384]>(BLOBFILE(path = tensor<string, []>("@model_path/weights/weight.bin"), offset = tensor<uint64, []>(206624064)))];
            tensor<fp16, [?, ?, 384]> input_97_cast = layer_norm(axes = input_97_axes_0, beta = model_encoder_layer_3_output_LayerNorm_bias_to_fp16, epsilon = var_10_to_fp16, gamma = model_encoder_layer_3_output_LayerNorm_weight_to_fp16, x = input_95_cast);
            tensor<fp16, [384, 384]> model_encoder_layer_4_attention_self_query_weight_to_fp16 = const()[name = tensor<string, []>("model_encoder_layer_4_attention_self_query_weight_to_fp16"), val = tensor<fp16, [384, 384]>(BLOBFILE(path = tensor<string, []>("@model_path/weights/weight.bin"), offset = tensor<uint64, []>(206624896)))];
            tensor<fp16, [384]> model_encoder_layer_4_attention_self_query_bias_to_fp16 = const()[name = tensor<string, []>("model_encoder_layer_4_attention_self_query_bias_to_fp16"), val = tensor<fp16, [384]>(BLOBFILE(path = tensor<string, []>("@model_path/weights/weight.bin"), offset = tensor<uint64, []>(206919872)))];
            tensor<fp16, [?, ?, 384]> x_57_cast = linear(bias = model_encoder_layer_4_attention_self_query_bias_to_fp16, weight = model_encoder_layer_4_attention_self_query_weight_to_fp16, x = input_97_cast);
            tensor<fp16, [384, 384]> model_encoder_layer_4_attention_self_key_weight_to_fp16 = const()[name = tensor<string, []>("model_encoder_layer_4_attention_self_key_weight_to_fp16"), val = tensor<fp16, [384, 384]>(BLOBFILE(path = tensor<string, []>("@model_path/weights/weight.bin"), offset = tensor<uint64, []>(206920704)))];
            tensor<fp16, [384]> model_encoder_layer_4_attention_self_key_bias_to_fp16 = const()[name = tensor<string, []>("model_encoder_layer_4_attention_self_key_bias_to_fp16"), val = tensor<fp16, [384]>(BLOBFILE(path = tensor<string, []>("@model_path/weights/weight.bin"), offset = tensor<uint64, []>(207215680)))];
            tensor<fp16, [?, ?, 384]> x_49_cast = linear(bias = model_encoder_layer_4_attention_self_key_bias_to_fp16, weight = model_encoder_layer_4_attention_self_key_weight_to_fp16, x = input_97_cast);
            tensor<int32, [3]> var_412_shape_cast = shape(x = x_49_cast);
            tensor<int32, []> gather_35_indices_0 = const()[name = tensor<string, []>("gather_35_indices_0"), val = tensor<int32, []>(0)];
            tensor<int32, []> gather_35_axis_0 = const()[name = tensor<string, []>("gather_35_axis_0"), val = tensor<int32, []>(0)];
            tensor<int32, []> gather_35 = gather(axis = gather_35_axis_0, indices = gather_35_indices_0, x = var_412_shape_cast);
            tensor<int32, []> gather_36_indices_0 = const()[name = tensor<string, []>("gather_36_indices_0"), val = tensor<int32, []>(1)];
            tensor<int32, []> gather_36_axis_0 = const()[name = tensor<string, []>("gather_36_axis_0"), val = tensor<int32, []>(0)];
            tensor<int32, []> gather_36 = gather(axis = gather_36_axis_0, indices = gather_36_indices_0, x = var_412_shape_cast);
            tensor<int32, []> concat_19_axis_0 = const()[name = tensor<string, []>("concat_19_axis_0"), val = tensor<int32, []>(0)];
            tensor<bool, []> concat_19_interleave_0 = const()[name = tensor<string, []>("concat_19_interleave_0"), val = tensor<bool, []>(false)];
            tensor<int32, [4]> concat_19 = concat(axis = concat_19_axis_0, interleave = concat_19_interleave_0, values = (gather_35, gather_36, var_7, var_6));
            tensor<fp16, [?, ?, 12, 32]> x_51_cast = reshape(shape = concat_19, x = x_49_cast);
            tensor<fp16, [384, 384]> model_encoder_layer_4_attention_self_value_weight_to_fp16 = const()[name = tensor<string, []>("model_encoder_layer_4_attention_self_value_weight_to_fp16"), val = tensor<fp16, [384, 384]>(BLOBFILE(path = tensor<string, []>("@model_path/weights/weight.bin"), offset = tensor<uint64, []>(207216512)))];
            tensor<fp16, [384]> model_encoder_layer_4_attention_self_value_bias_to_fp16 = const()[name = tensor<string, []>("model_encoder_layer_4_attention_self_value_bias_to_fp16"), val = tensor<fp16, [384]>(BLOBFILE(path = tensor<string, []>("@model_path/weights/weight.bin"), offset = tensor<uint64, []>(207511488)))];
            tensor<fp16, [?, ?, 384]> x_53_cast = linear(bias = model_encoder_layer_4_attention_self_value_bias_to_fp16, weight = model_encoder_layer_4_attention_self_value_weight_to_fp16, x = input_97_cast);
            tensor<int32, [3]> var_421_shape_cast = shape(x = x_53_cast);
            tensor<int32, []> gather_37_indices_0 = const()[name = tensor<string, []>("gather_37_indices_0"), val = tensor<int32, []>(0)];
            tensor<int32, []> gather_37_axis_0 = const()[name = tensor<string, []>("gather_37_axis_0"), val = tensor<int32, []>(0)];
            tensor<int32, []> gather_37 = gather(axis = gather_37_axis_0, indices = gather_37_indices_0, x = var_421_shape_cast);
            tensor<int32, []> gather_38_indices_0 = const()[name = tensor<string, []>("gather_38_indices_0"), val = tensor<int32, []>(1)];
            tensor<int32, []> gather_38_axis_0 = const()[name = tensor<string, []>("gather_38_axis_0"), val = tensor<int32, []>(0)];
            tensor<int32, []> gather_38 = gather(axis = gather_38_axis_0, indices = gather_38_indices_0, x = var_421_shape_cast);
            tensor<int32, []> concat_20_axis_0 = const()[name = tensor<string, []>("concat_20_axis_0"), val = tensor<int32, []>(0)];
            tensor<bool, []> concat_20_interleave_0 = const()[name = tensor<string, []>("concat_20_interleave_0"), val = tensor<bool, []>(false)];
            tensor<int32, [4]> concat_20 = concat(axis = concat_20_axis_0, interleave = concat_20_interleave_0, values = (gather_37, gather_38, var_7, var_6));
            tensor<fp16, [?, ?, 12, 32]> x_55_cast = reshape(shape = concat_20, x = x_53_cast);
            tensor<int32, [4]> var_425 = const()[name = tensor<string, []>("op_425"), val = tensor<int32, [4]>([0, 2, 1, 3])];
            tensor<int32, [3]> var_427_shape_cast = shape(x = x_57_cast);
            tensor<int32, []> gather_39_indices_0 = const()[name = tensor<string, []>("gather_39_indices_0"), val = tensor<int32, []>(0)];
            tensor<int32, []> gather_39_axis_0 = const()[name = tensor<string, []>("gather_39_axis_0"), val = tensor<int32, []>(0)];
            tensor<int32, []> gather_39 = gather(axis = gather_39_axis_0, indices = gather_39_indices_0, x = var_427_shape_cast);
            tensor<int32, []> gather_40_indices_0 = const()[name = tensor<string, []>("gather_40_indices_0"), val = tensor<int32, []>(1)];
            tensor<int32, []> gather_40_axis_0 = const()[name = tensor<string, []>("gather_40_axis_0"), val = tensor<int32, []>(0)];
            tensor<int32, []> gather_40 = gather(axis = gather_40_axis_0, indices = gather_40_indices_0, x = var_427_shape_cast);
            tensor<int32, []> concat_21_axis_0 = const()[name = tensor<string, []>("concat_21_axis_0"), val = tensor<int32, []>(0)];
            tensor<bool, []> concat_21_interleave_0 = const()[name = tensor<string, []>("concat_21_interleave_0"), val = tensor<bool, []>(false)];
            tensor<int32, [4]> concat_21 = concat(axis = concat_21_axis_0, interleave = concat_21_interleave_0, values = (gather_39, gather_40, var_7, var_6));
            tensor<fp16, [?, ?, 12, 32]> x_59_cast = reshape(shape = concat_21, x = x_57_cast);
            tensor<bool, []> attention_scores_17_transpose_x_0 = const()[name = tensor<string, []>("attention_scores_17_transpose_x_0"), val = tensor<bool, []>(false)];
            tensor<bool, []> attention_scores_17_transpose_y_0 = const()[name = tensor<string, []>("attention_scores_17_transpose_y_0"), val = tensor<bool, []>(false)];
            tensor<int32, [4]> transpose_20_perm_0 = const()[name = tensor<string, []>("transpose_20_perm_0"), val = tensor<int32, [4]>([0, 2, 1, 3])];
            tensor<int32, [4]> transpose_21_perm_0 = const()[name = tensor<string, []>("transpose_21_perm_0"), val = tensor<int32, [4]>([0, 2, 3, 1])];
            tensor<fp16, [?, 12, 32, ?]> transpose_65 = transpose(perm = transpose_21_perm_0, x = x_51_cast);
            tensor<fp16, [?, 12, ?, 32]> transpose_66 = transpose(perm = transpose_20_perm_0, x = x_59_cast);
            tensor<fp16, [?, 12, ?, ?]> attention_scores_17_cast = matmul(transpose_x = attention_scores_17_transpose_x_0, transpose_y = attention_scores_17_transpose_y_0, x = transpose_66, y = transpose_65);
            tensor<fp16, []> _inversed_attention_scores_19_y_0_to_fp16 = const()[name = tensor<string, []>("_inversed_attention_scores_19_y_0_to_fp16"), val = tensor<fp16, []>(0x1.6ap-3)];
            tensor<fp16, [?, 12, ?, ?]> _inversed_attention_scores_19_cast = mul(x = attention_scores_17_cast, y = _inversed_attention_scores_19_y_0_to_fp16);
            tensor<fp16, [?, 12, ?, ?]> input_99_cast = add(x = _inversed_attention_scores_19_cast, y = cast_356);
            tensor<fp16, [?, 12, ?, ?]> input_101_cast = softmax(axis = var_8, x = input_99_cast);
            tensor<bool, []> context_layer_17_transpose_x_0 = const()[name = tensor<string, []>("context_layer_17_transpose_x_0"), val = tensor<bool, []>(false)];
            tensor<bool, []> context_layer_17_transpose_y_0 = const()[name = tensor<string, []>("context_layer_17_transpose_y_0"), val = tensor<bool, []>(false)];
            tensor<fp16, [?, 12, ?, 32]> transpose_67 = transpose(perm = var_425, x = x_55_cast);
            tensor<fp16, [?, 12, ?, 32]> context_layer_17_cast = matmul(transpose_x = context_layer_17_transpose_x_0, transpose_y = context_layer_17_transpose_y_0, x = input_101_cast, y = transpose_67);
            tensor<int32, [4]> var_441 = const()[name = tensor<string, []>("op_441"), val = tensor<int32, [4]>([0, 2, 1, 3])];
            tensor<fp16, [?, ?, 12, 32]> transpose_64 = transpose(perm = var_441, x = context_layer_17_cast);
            tensor<int32, [4]> var_444_shape_cast = shape(x = transpose_64);
            tensor<int32, []> gather_41_indices_0 = const()[name = tensor<string, []>("gather_41_indices_0"), val = tensor<int32, []>(0)];
            tensor<int32, []> gather_41_axis_0 = const()[name = tensor<string, []>("gather_41_axis_0"), val = tensor<int32, []>(0)];
            tensor<int32, []> gather_41 = gather(axis = gather_41_axis_0, indices = gather_41_indices_0, x = var_444_shape_cast);
            tensor<int32, []> gather_42_indices_0 = const()[name = tensor<string, []>("gather_42_indices_0"), val = tensor<int32, []>(1)];
            tensor<int32, []> gather_42_axis_0 = const()[name = tensor<string, []>("gather_42_axis_0"), val = tensor<int32, []>(0)];
            tensor<int32, []> gather_42 = gather(axis = gather_42_axis_0, indices = gather_42_indices_0, x = var_444_shape_cast);
            tensor<int32, []> concat_22_axis_0 = const()[name = tensor<string, []>("concat_22_axis_0"), val = tensor<int32, []>(0)];
            tensor<bool, []> concat_22_interleave_0 = const()[name = tensor<string, []>("concat_22_interleave_0"), val = tensor<bool, []>(false)];
            tensor<int32, [3]> concat_22 = concat(axis = concat_22_axis_0, interleave = concat_22_interleave_0, values = (gather_41, gather_42, var_11));
            tensor<fp16, [?, ?, 384]> input_103_cast = reshape(shape = concat_22, x = transpose_64);
            tensor<fp16, [384, 384]> model_encoder_layer_4_attention_output_dense_weight_to_fp16 = const()[name = tensor<string, []>("model_encoder_layer_4_attention_output_dense_weight_to_fp16"), val = tensor<fp16, [384, 384]>(BLOBFILE(path = tensor<string, []>("@model_path/weights/weight.bin"), offset = tensor<uint64, []>(207512320)))];
            tensor<fp16, [384]> model_encoder_layer_4_attention_output_dense_bias_to_fp16 = const()[name = tensor<string, []>("model_encoder_layer_4_attention_output_dense_bias_to_fp16"), val = tensor<fp16, [384]>(BLOBFILE(path = tensor<string, []>("@model_path/weights/weight.bin"), offset = tensor<uint64, []>(207807296)))];
            tensor<fp16, [?, ?, 384]> input_105_cast = linear(bias = model_encoder_layer_4_attention_output_dense_bias_to_fp16, weight = model_encoder_layer_4_attention_output_dense_weight_to_fp16, x = input_103_cast);
            tensor<fp16, [?, ?, 384]> input_107_cast = add(x = input_105_cast, y = input_97_cast);
            tensor<int32, [1]> input_109_axes_0 = const()[name = tensor<string, []>("input_109_axes_0"), val = tensor<int32, [1]>([-1])];
            tensor<fp16, [384]> model_encoder_layer_4_attention_output_LayerNorm_weight_to_fp16 = const()[name = tensor<string, []>("model_encoder_layer_4_attention_output_LayerNorm_weight_to_fp16"), val = tensor<fp16, [384]>(BLOBFILE(path = tensor<string, []>("@model_path/weights/weight.bin"), offset = tensor<uint64, []>(207808128)))];
            tensor<fp16, [384]> model_encoder_layer_4_attention_output_LayerNorm_bias_to_fp16 = const()[name = tensor<string, []>("model_encoder_layer_4_attention_output_LayerNorm_bias_to_fp16"), val = tensor<fp16, [384]>(BLOBFILE(path = tensor<string, []>("@model_path/weights/weight.bin"), offset = tensor<uint64, []>(207808960)))];
            tensor<fp16, [?, ?, 384]> input_109_cast = layer_norm(axes = input_109_axes_0, beta = model_encoder_layer_4_attention_output_LayerNorm_bias_to_fp16, epsilon = var_10_to_fp16, gamma = model_encoder_layer_4_attention_output_LayerNorm_weight_to_fp16, x = input_107_cast);
            tensor<fp16, [1536, 384]> model_encoder_layer_4_intermediate_dense_weight_to_fp16 = const()[name = tensor<string, []>("model_encoder_layer_4_intermediate_dense_weight_to_fp16"), val = tensor<fp16, [1536, 384]>(BLOBFILE(path = tensor<string, []>("@model_path/weights/weight.bin"), offset = tensor<uint64, []>(207809792)))];
            tensor<fp16, [1536]> model_encoder_layer_4_intermediate_dense_bias_to_fp16 = const()[name = tensor<string, []>("model_encoder_layer_4_intermediate_dense_bias_to_fp16"), val = tensor<fp16, [1536]>(BLOBFILE(path = tensor<string, []>("@model_path/weights/weight.bin"), offset = tensor<uint64, []>(208989504)))];
            tensor<fp16, [?, ?, 1536]> input_111_cast = linear(bias = model_encoder_layer_4_intermediate_dense_bias_to_fp16, weight = model_encoder_layer_4_intermediate_dense_weight_to_fp16, x = input_109_cast);
            tensor<string, []> input_113_mode_0 = const()[name = tensor<string, []>("input_113_mode_0"), val = tensor<string, []>("EXACT")];
            tensor<fp16, [?, ?, 1536]> input_113_cast = gelu(mode = input_113_mode_0, x = input_111_cast);
            tensor<fp16, [384, 1536]> model_encoder_layer_4_output_dense_weight_to_fp16 = const()[name = tensor<string, []>("model_encoder_layer_4_output_dense_weight_to_fp16"), val = tensor<fp16, [384, 1536]>(BLOBFILE(path = tensor<string, []>("@model_path/weights/weight.bin"), offset = tensor<uint64, []>(208992640)))];
            tensor<fp16, [384]> model_encoder_layer_4_output_dense_bias_to_fp16 = const()[name = tensor<string, []>("model_encoder_layer_4_output_dense_bias_to_fp16"), val = tensor<fp16, [384]>(BLOBFILE(path = tensor<string, []>("@model_path/weights/weight.bin"), offset = tensor<uint64, []>(210172352)))];
            tensor<fp16, [?, ?, 384]> input_115_cast = linear(bias = model_encoder_layer_4_output_dense_bias_to_fp16, weight = model_encoder_layer_4_output_dense_weight_to_fp16, x = input_113_cast);
            tensor<fp16, [?, ?, 384]> input_117_cast = add(x = input_115_cast, y = input_109_cast);
            tensor<int32, [1]> input_119_axes_0 = const()[name = tensor<string, []>("input_119_axes_0"), val = tensor<int32, [1]>([-1])];
            tensor<fp16, [384]> model_encoder_layer_4_output_LayerNorm_weight_to_fp16 = const()[name = tensor<string, []>("model_encoder_layer_4_output_LayerNorm_weight_to_fp16"), val = tensor<fp16, [384]>(BLOBFILE(path = tensor<string, []>("@model_path/weights/weight.bin"), offset = tensor<uint64, []>(210173184)))];
            tensor<fp16, [384]> model_encoder_layer_4_output_LayerNorm_bias_to_fp16 = const()[name = tensor<string, []>("model_encoder_layer_4_output_LayerNorm_bias_to_fp16"), val = tensor<fp16, [384]>(BLOBFILE(path = tensor<string, []>("@model_path/weights/weight.bin"), offset = tensor<uint64, []>(210174016)))];
            tensor<fp16, [?, ?, 384]> input_119_cast = layer_norm(axes = input_119_axes_0, beta = model_encoder_layer_4_output_LayerNorm_bias_to_fp16, epsilon = var_10_to_fp16, gamma = model_encoder_layer_4_output_LayerNorm_weight_to_fp16, x = input_117_cast);
            tensor<fp16, [384, 384]> model_encoder_layer_5_attention_self_query_weight_to_fp16 = const()[name = tensor<string, []>("model_encoder_layer_5_attention_self_query_weight_to_fp16"), val = tensor<fp16, [384, 384]>(BLOBFILE(path = tensor<string, []>("@model_path/weights/weight.bin"), offset = tensor<uint64, []>(210174848)))];
            tensor<fp16, [384]> model_encoder_layer_5_attention_self_query_bias_to_fp16 = const()[name = tensor<string, []>("model_encoder_layer_5_attention_self_query_bias_to_fp16"), val = tensor<fp16, [384]>(BLOBFILE(path = tensor<string, []>("@model_path/weights/weight.bin"), offset = tensor<uint64, []>(210469824)))];
            tensor<fp16, [?, ?, 384]> x_69_cast = linear(bias = model_encoder_layer_5_attention_self_query_bias_to_fp16, weight = model_encoder_layer_5_attention_self_query_weight_to_fp16, x = input_119_cast);
            tensor<fp16, [384, 384]> model_encoder_layer_5_attention_self_key_weight_to_fp16 = const()[name = tensor<string, []>("model_encoder_layer_5_attention_self_key_weight_to_fp16"), val = tensor<fp16, [384, 384]>(BLOBFILE(path = tensor<string, []>("@model_path/weights/weight.bin"), offset = tensor<uint64, []>(210470656)))];
            tensor<fp16, [384]> model_encoder_layer_5_attention_self_key_bias_to_fp16 = const()[name = tensor<string, []>("model_encoder_layer_5_attention_self_key_bias_to_fp16"), val = tensor<fp16, [384]>(BLOBFILE(path = tensor<string, []>("@model_path/weights/weight.bin"), offset = tensor<uint64, []>(210765632)))];
            tensor<fp16, [?, ?, 384]> x_61_cast = linear(bias = model_encoder_layer_5_attention_self_key_bias_to_fp16, weight = model_encoder_layer_5_attention_self_key_weight_to_fp16, x = input_119_cast);
            tensor<int32, [3]> var_489_shape_cast = shape(x = x_61_cast);
            tensor<int32, []> gather_43_indices_0 = const()[name = tensor<string, []>("gather_43_indices_0"), val = tensor<int32, []>(0)];
            tensor<int32, []> gather_43_axis_0 = const()[name = tensor<string, []>("gather_43_axis_0"), val = tensor<int32, []>(0)];
            tensor<int32, []> gather_43 = gather(axis = gather_43_axis_0, indices = gather_43_indices_0, x = var_489_shape_cast);
            tensor<int32, []> gather_44_indices_0 = const()[name = tensor<string, []>("gather_44_indices_0"), val = tensor<int32, []>(1)];
            tensor<int32, []> gather_44_axis_0 = const()[name = tensor<string, []>("gather_44_axis_0"), val = tensor<int32, []>(0)];
            tensor<int32, []> gather_44 = gather(axis = gather_44_axis_0, indices = gather_44_indices_0, x = var_489_shape_cast);
            tensor<int32, []> concat_23_axis_0 = const()[name = tensor<string, []>("concat_23_axis_0"), val = tensor<int32, []>(0)];
            tensor<bool, []> concat_23_interleave_0 = const()[name = tensor<string, []>("concat_23_interleave_0"), val = tensor<bool, []>(false)];
            tensor<int32, [4]> concat_23 = concat(axis = concat_23_axis_0, interleave = concat_23_interleave_0, values = (gather_43, gather_44, var_7, var_6));
            tensor<fp16, [?, ?, 12, 32]> x_63_cast = reshape(shape = concat_23, x = x_61_cast);
            tensor<fp16, [384, 384]> model_encoder_layer_5_attention_self_value_weight_to_fp16 = const()[name = tensor<string, []>("model_encoder_layer_5_attention_self_value_weight_to_fp16"), val = tensor<fp16, [384, 384]>(BLOBFILE(path = tensor<string, []>("@model_path/weights/weight.bin"), offset = tensor<uint64, []>(210766464)))];
            tensor<fp16, [384]> model_encoder_layer_5_attention_self_value_bias_to_fp16 = const()[name = tensor<string, []>("model_encoder_layer_5_attention_self_value_bias_to_fp16"), val = tensor<fp16, [384]>(BLOBFILE(path = tensor<string, []>("@model_path/weights/weight.bin"), offset = tensor<uint64, []>(211061440)))];
            tensor<fp16, [?, ?, 384]> x_65_cast = linear(bias = model_encoder_layer_5_attention_self_value_bias_to_fp16, weight = model_encoder_layer_5_attention_self_value_weight_to_fp16, x = input_119_cast);
            tensor<int32, [3]> var_498_shape_cast = shape(x = x_65_cast);
            tensor<int32, []> gather_45_indices_0 = const()[name = tensor<string, []>("gather_45_indices_0"), val = tensor<int32, []>(0)];
            tensor<int32, []> gather_45_axis_0 = const()[name = tensor<string, []>("gather_45_axis_0"), val = tensor<int32, []>(0)];
            tensor<int32, []> gather_45 = gather(axis = gather_45_axis_0, indices = gather_45_indices_0, x = var_498_shape_cast);
            tensor<int32, []> gather_46_indices_0 = const()[name = tensor<string, []>("gather_46_indices_0"), val = tensor<int32, []>(1)];
            tensor<int32, []> gather_46_axis_0 = const()[name = tensor<string, []>("gather_46_axis_0"), val = tensor<int32, []>(0)];
            tensor<int32, []> gather_46 = gather(axis = gather_46_axis_0, indices = gather_46_indices_0, x = var_498_shape_cast);
            tensor<int32, []> concat_24_axis_0 = const()[name = tensor<string, []>("concat_24_axis_0"), val = tensor<int32, []>(0)];
            tensor<bool, []> concat_24_interleave_0 = const()[name = tensor<string, []>("concat_24_interleave_0"), val = tensor<bool, []>(false)];
            tensor<int32, [4]> concat_24 = concat(axis = concat_24_axis_0, interleave = concat_24_interleave_0, values = (gather_45, gather_46, var_7, var_6));
            tensor<fp16, [?, ?, 12, 32]> x_67_cast = reshape(shape = concat_24, x = x_65_cast);
            tensor<int32, [4]> var_502 = const()[name = tensor<string, []>("op_502"), val = tensor<int32, [4]>([0, 2, 1, 3])];
            tensor<int32, [3]> var_504_shape_cast = shape(x = x_69_cast);
            tensor<int32, []> gather_47_indices_0 = const()[name = tensor<string, []>("gather_47_indices_0"), val = tensor<int32, []>(0)];
            tensor<int32, []> gather_47_axis_0 = const()[name = tensor<string, []>("gather_47_axis_0"), val = tensor<int32, []>(0)];
            tensor<int32, []> gather_47 = gather(axis = gather_47_axis_0, indices = gather_47_indices_0, x = var_504_shape_cast);
            tensor<int32, []> gather_48_indices_0 = const()[name = tensor<string, []>("gather_48_indices_0"), val = tensor<int32, []>(1)];
            tensor<int32, []> gather_48_axis_0 = const()[name = tensor<string, []>("gather_48_axis_0"), val = tensor<int32, []>(0)];
            tensor<int32, []> gather_48 = gather(axis = gather_48_axis_0, indices = gather_48_indices_0, x = var_504_shape_cast);
            tensor<int32, []> concat_25_axis_0 = const()[name = tensor<string, []>("concat_25_axis_0"), val = tensor<int32, []>(0)];
            tensor<bool, []> concat_25_interleave_0 = const()[name = tensor<string, []>("concat_25_interleave_0"), val = tensor<bool, []>(false)];
            tensor<int32, [4]> concat_25 = concat(axis = concat_25_axis_0, interleave = concat_25_interleave_0, values = (gather_47, gather_48, var_7, var_6));
            tensor<fp16, [?, ?, 12, 32]> x_71_cast = reshape(shape = concat_25, x = x_69_cast);
            tensor<bool, []> attention_scores_21_transpose_x_0 = const()[name = tensor<string, []>("attention_scores_21_transpose_x_0"), val = tensor<bool, []>(false)];
            tensor<bool, []> attention_scores_21_transpose_y_0 = const()[name = tensor<string, []>("attention_scores_21_transpose_y_0"), val = tensor<bool, []>(false)];
            tensor<int32, [4]> transpose_22_perm_0 = const()[name = tensor<string, []>("transpose_22_perm_0"), val = tensor<int32, [4]>([0, 2, 1, 3])];
            tensor<int32, [4]> transpose_23_perm_0 = const()[name = tensor<string, []>("transpose_23_perm_0"), val = tensor<int32, [4]>([0, 2, 3, 1])];
            tensor<fp16, [?, 12, 32, ?]> transpose_61 = transpose(perm = transpose_23_perm_0, x = x_63_cast);
            tensor<fp16, [?, 12, ?, 32]> transpose_62 = transpose(perm = transpose_22_perm_0, x = x_71_cast);
            tensor<fp16, [?, 12, ?, ?]> attention_scores_21_cast = matmul(transpose_x = attention_scores_21_transpose_x_0, transpose_y = attention_scores_21_transpose_y_0, x = transpose_62, y = transpose_61);
            tensor<fp16, []> _inversed_attention_scores_23_y_0_to_fp16 = const()[name = tensor<string, []>("_inversed_attention_scores_23_y_0_to_fp16"), val = tensor<fp16, []>(0x1.6ap-3)];
            tensor<fp16, [?, 12, ?, ?]> _inversed_attention_scores_23_cast = mul(x = attention_scores_21_cast, y = _inversed_attention_scores_23_y_0_to_fp16);
            tensor<fp16, [?, 12, ?, ?]> input_121_cast = add(x = _inversed_attention_scores_23_cast, y = cast_356);
            tensor<fp16, [?, 12, ?, ?]> input_123_cast = softmax(axis = var_8, x = input_121_cast);
            tensor<bool, []> context_layer_21_transpose_x_0 = const()[name = tensor<string, []>("context_layer_21_transpose_x_0"), val = tensor<bool, []>(false)];
            tensor<bool, []> context_layer_21_transpose_y_0 = const()[name = tensor<string, []>("context_layer_21_transpose_y_0"), val = tensor<bool, []>(false)];
            tensor<fp16, [?, 12, ?, 32]> transpose_63 = transpose(perm = var_502, x = x_67_cast);
            tensor<fp16, [?, 12, ?, 32]> context_layer_21_cast = matmul(transpose_x = context_layer_21_transpose_x_0, transpose_y = context_layer_21_transpose_y_0, x = input_123_cast, y = transpose_63);
            tensor<int32, [4]> var_518 = const()[name = tensor<string, []>("op_518"), val = tensor<int32, [4]>([0, 2, 1, 3])];
            tensor<fp16, [?, ?, 12, 32]> transpose_60 = transpose(perm = var_518, x = context_layer_21_cast);
            tensor<int32, [4]> var_521_shape_cast = shape(x = transpose_60);
            tensor<int32, []> gather_49_indices_0 = const()[name = tensor<string, []>("gather_49_indices_0"), val = tensor<int32, []>(0)];
            tensor<int32, []> gather_49_axis_0 = const()[name = tensor<string, []>("gather_49_axis_0"), val = tensor<int32, []>(0)];
            tensor<int32, []> gather_49 = gather(axis = gather_49_axis_0, indices = gather_49_indices_0, x = var_521_shape_cast);
            tensor<int32, []> gather_50_indices_0 = const()[name = tensor<string, []>("gather_50_indices_0"), val = tensor<int32, []>(1)];
            tensor<int32, []> gather_50_axis_0 = const()[name = tensor<string, []>("gather_50_axis_0"), val = tensor<int32, []>(0)];
            tensor<int32, []> gather_50 = gather(axis = gather_50_axis_0, indices = gather_50_indices_0, x = var_521_shape_cast);
            tensor<int32, []> concat_26_axis_0 = const()[name = tensor<string, []>("concat_26_axis_0"), val = tensor<int32, []>(0)];
            tensor<bool, []> concat_26_interleave_0 = const()[name = tensor<string, []>("concat_26_interleave_0"), val = tensor<bool, []>(false)];
            tensor<int32, [3]> concat_26 = concat(axis = concat_26_axis_0, interleave = concat_26_interleave_0, values = (gather_49, gather_50, var_11));
            tensor<fp16, [?, ?, 384]> input_125_cast = reshape(shape = concat_26, x = transpose_60);
            tensor<fp16, [384, 384]> model_encoder_layer_5_attention_output_dense_weight_to_fp16 = const()[name = tensor<string, []>("model_encoder_layer_5_attention_output_dense_weight_to_fp16"), val = tensor<fp16, [384, 384]>(BLOBFILE(path = tensor<string, []>("@model_path/weights/weight.bin"), offset = tensor<uint64, []>(211062272)))];
            tensor<fp16, [384]> model_encoder_layer_5_attention_output_dense_bias_to_fp16 = const()[name = tensor<string, []>("model_encoder_layer_5_attention_output_dense_bias_to_fp16"), val = tensor<fp16, [384]>(BLOBFILE(path = tensor<string, []>("@model_path/weights/weight.bin"), offset = tensor<uint64, []>(211357248)))];
            tensor<fp16, [?, ?, 384]> input_127_cast = linear(bias = model_encoder_layer_5_attention_output_dense_bias_to_fp16, weight = model_encoder_layer_5_attention_output_dense_weight_to_fp16, x = input_125_cast);
            tensor<fp16, [?, ?, 384]> input_129_cast = add(x = input_127_cast, y = input_119_cast);
            tensor<int32, [1]> input_131_axes_0 = const()[name = tensor<string, []>("input_131_axes_0"), val = tensor<int32, [1]>([-1])];
            tensor<fp16, [384]> model_encoder_layer_5_attention_output_LayerNorm_weight_to_fp16 = const()[name = tensor<string, []>("model_encoder_layer_5_attention_output_LayerNorm_weight_to_fp16"), val = tensor<fp16, [384]>(BLOBFILE(path = tensor<string, []>("@model_path/weights/weight.bin"), offset = tensor<uint64, []>(211358080)))];
            tensor<fp16, [384]> model_encoder_layer_5_attention_output_LayerNorm_bias_to_fp16 = const()[name = tensor<string, []>("model_encoder_layer_5_attention_output_LayerNorm_bias_to_fp16"), val = tensor<fp16, [384]>(BLOBFILE(path = tensor<string, []>("@model_path/weights/weight.bin"), offset = tensor<uint64, []>(211358912)))];
            tensor<fp16, [?, ?, 384]> input_131_cast = layer_norm(axes = input_131_axes_0, beta = model_encoder_layer_5_attention_output_LayerNorm_bias_to_fp16, epsilon = var_10_to_fp16, gamma = model_encoder_layer_5_attention_output_LayerNorm_weight_to_fp16, x = input_129_cast);
            tensor<fp16, [1536, 384]> model_encoder_layer_5_intermediate_dense_weight_to_fp16 = const()[name = tensor<string, []>("model_encoder_layer_5_intermediate_dense_weight_to_fp16"), val = tensor<fp16, [1536, 384]>(BLOBFILE(path = tensor<string, []>("@model_path/weights/weight.bin"), offset = tensor<uint64, []>(211359744)))];
            tensor<fp16, [1536]> model_encoder_layer_5_intermediate_dense_bias_to_fp16 = const()[name = tensor<string, []>("model_encoder_layer_5_intermediate_dense_bias_to_fp16"), val = tensor<fp16, [1536]>(BLOBFILE(path = tensor<string, []>("@model_path/weights/weight.bin"), offset = tensor<uint64, []>(212539456)))];
            tensor<fp16, [?, ?, 1536]> input_133_cast = linear(bias = model_encoder_layer_5_intermediate_dense_bias_to_fp16, weight = model_encoder_layer_5_intermediate_dense_weight_to_fp16, x = input_131_cast);
            tensor<string, []> input_135_mode_0 = const()[name = tensor<string, []>("input_135_mode_0"), val = tensor<string, []>("EXACT")];
            tensor<fp16, [?, ?, 1536]> input_135_cast = gelu(mode = input_135_mode_0, x = input_133_cast);
            tensor<fp16, [384, 1536]> model_encoder_layer_5_output_dense_weight_to_fp16 = const()[name = tensor<string, []>("model_encoder_layer_5_output_dense_weight_to_fp16"), val = tensor<fp16, [384, 1536]>(BLOBFILE(path = tensor<string, []>("@model_path/weights/weight.bin"), offset = tensor<uint64, []>(212542592)))];
            tensor<fp16, [384]> model_encoder_layer_5_output_dense_bias_to_fp16 = const()[name = tensor<string, []>("model_encoder_layer_5_output_dense_bias_to_fp16"), val = tensor<fp16, [384]>(BLOBFILE(path = tensor<string, []>("@model_path/weights/weight.bin"), offset = tensor<uint64, []>(213722304)))];
            tensor<fp16, [?, ?, 384]> input_137_cast = linear(bias = model_encoder_layer_5_output_dense_bias_to_fp16, weight = model_encoder_layer_5_output_dense_weight_to_fp16, x = input_135_cast);
            tensor<fp16, [?, ?, 384]> input_139_cast = add(x = input_137_cast, y = input_131_cast);
            tensor<int32, [1]> input_141_axes_0 = const()[name = tensor<string, []>("input_141_axes_0"), val = tensor<int32, [1]>([-1])];
            tensor<fp16, [384]> model_encoder_layer_5_output_LayerNorm_weight_to_fp16 = const()[name = tensor<string, []>("model_encoder_layer_5_output_LayerNorm_weight_to_fp16"), val = tensor<fp16, [384]>(BLOBFILE(path = tensor<string, []>("@model_path/weights/weight.bin"), offset = tensor<uint64, []>(213723136)))];
            tensor<fp16, [384]> model_encoder_layer_5_output_LayerNorm_bias_to_fp16 = const()[name = tensor<string, []>("model_encoder_layer_5_output_LayerNorm_bias_to_fp16"), val = tensor<fp16, [384]>(BLOBFILE(path = tensor<string, []>("@model_path/weights/weight.bin"), offset = tensor<uint64, []>(213723968)))];
            tensor<fp16, [?, ?, 384]> input_141_cast = layer_norm(axes = input_141_axes_0, beta = model_encoder_layer_5_output_LayerNorm_bias_to_fp16, epsilon = var_10_to_fp16, gamma = model_encoder_layer_5_output_LayerNorm_weight_to_fp16, x = input_139_cast);
            tensor<fp16, [384, 384]> model_encoder_layer_6_attention_self_query_weight_to_fp16 = const()[name = tensor<string, []>("model_encoder_layer_6_attention_self_query_weight_to_fp16"), val = tensor<fp16, [384, 384]>(BLOBFILE(path = tensor<string, []>("@model_path/weights/weight.bin"), offset = tensor<uint64, []>(213724800)))];
            tensor<fp16, [384]> model_encoder_layer_6_attention_self_query_bias_to_fp16 = const()[name = tensor<string, []>("model_encoder_layer_6_attention_self_query_bias_to_fp16"), val = tensor<fp16, [384]>(BLOBFILE(path = tensor<string, []>("@model_path/weights/weight.bin"), offset = tensor<uint64, []>(214019776)))];
            tensor<fp16, [?, ?, 384]> x_81_cast = linear(bias = model_encoder_layer_6_attention_self_query_bias_to_fp16, weight = model_encoder_layer_6_attention_self_query_weight_to_fp16, x = input_141_cast);
            tensor<fp16, [384, 384]> model_encoder_layer_6_attention_self_key_weight_to_fp16 = const()[name = tensor<string, []>("model_encoder_layer_6_attention_self_key_weight_to_fp16"), val = tensor<fp16, [384, 384]>(BLOBFILE(path = tensor<string, []>("@model_path/weights/weight.bin"), offset = tensor<uint64, []>(214020608)))];
            tensor<fp16, [384]> model_encoder_layer_6_attention_self_key_bias_to_fp16 = const()[name = tensor<string, []>("model_encoder_layer_6_attention_self_key_bias_to_fp16"), val = tensor<fp16, [384]>(BLOBFILE(path = tensor<string, []>("@model_path/weights/weight.bin"), offset = tensor<uint64, []>(214315584)))];
            tensor<fp16, [?, ?, 384]> x_73_cast = linear(bias = model_encoder_layer_6_attention_self_key_bias_to_fp16, weight = model_encoder_layer_6_attention_self_key_weight_to_fp16, x = input_141_cast);
            tensor<int32, [3]> var_566_shape_cast = shape(x = x_73_cast);
            tensor<int32, []> gather_51_indices_0 = const()[name = tensor<string, []>("gather_51_indices_0"), val = tensor<int32, []>(0)];
            tensor<int32, []> gather_51_axis_0 = const()[name = tensor<string, []>("gather_51_axis_0"), val = tensor<int32, []>(0)];
            tensor<int32, []> gather_51 = gather(axis = gather_51_axis_0, indices = gather_51_indices_0, x = var_566_shape_cast);
            tensor<int32, []> gather_52_indices_0 = const()[name = tensor<string, []>("gather_52_indices_0"), val = tensor<int32, []>(1)];
            tensor<int32, []> gather_52_axis_0 = const()[name = tensor<string, []>("gather_52_axis_0"), val = tensor<int32, []>(0)];
            tensor<int32, []> gather_52 = gather(axis = gather_52_axis_0, indices = gather_52_indices_0, x = var_566_shape_cast);
            tensor<int32, []> concat_27_axis_0 = const()[name = tensor<string, []>("concat_27_axis_0"), val = tensor<int32, []>(0)];
            tensor<bool, []> concat_27_interleave_0 = const()[name = tensor<string, []>("concat_27_interleave_0"), val = tensor<bool, []>(false)];
            tensor<int32, [4]> concat_27 = concat(axis = concat_27_axis_0, interleave = concat_27_interleave_0, values = (gather_51, gather_52, var_7, var_6));
            tensor<fp16, [?, ?, 12, 32]> x_75_cast = reshape(shape = concat_27, x = x_73_cast);
            tensor<fp16, [384, 384]> model_encoder_layer_6_attention_self_value_weight_to_fp16 = const()[name = tensor<string, []>("model_encoder_layer_6_attention_self_value_weight_to_fp16"), val = tensor<fp16, [384, 384]>(BLOBFILE(path = tensor<string, []>("@model_path/weights/weight.bin"), offset = tensor<uint64, []>(214316416)))];
            tensor<fp16, [384]> model_encoder_layer_6_attention_self_value_bias_to_fp16 = const()[name = tensor<string, []>("model_encoder_layer_6_attention_self_value_bias_to_fp16"), val = tensor<fp16, [384]>(BLOBFILE(path = tensor<string, []>("@model_path/weights/weight.bin"), offset = tensor<uint64, []>(214611392)))];
            tensor<fp16, [?, ?, 384]> x_77_cast = linear(bias = model_encoder_layer_6_attention_self_value_bias_to_fp16, weight = model_encoder_layer_6_attention_self_value_weight_to_fp16, x = input_141_cast);
            tensor<int32, [3]> var_575_shape_cast = shape(x = x_77_cast);
            tensor<int32, []> gather_53_indices_0 = const()[name = tensor<string, []>("gather_53_indices_0"), val = tensor<int32, []>(0)];
            tensor<int32, []> gather_53_axis_0 = const()[name = tensor<string, []>("gather_53_axis_0"), val = tensor<int32, []>(0)];
            tensor<int32, []> gather_53 = gather(axis = gather_53_axis_0, indices = gather_53_indices_0, x = var_575_shape_cast);
            tensor<int32, []> gather_54_indices_0 = const()[name = tensor<string, []>("gather_54_indices_0"), val = tensor<int32, []>(1)];
            tensor<int32, []> gather_54_axis_0 = const()[name = tensor<string, []>("gather_54_axis_0"), val = tensor<int32, []>(0)];
            tensor<int32, []> gather_54 = gather(axis = gather_54_axis_0, indices = gather_54_indices_0, x = var_575_shape_cast);
            tensor<int32, []> concat_28_axis_0 = const()[name = tensor<string, []>("concat_28_axis_0"), val = tensor<int32, []>(0)];
            tensor<bool, []> concat_28_interleave_0 = const()[name = tensor<string, []>("concat_28_interleave_0"), val = tensor<bool, []>(false)];
            tensor<int32, [4]> concat_28 = concat(axis = concat_28_axis_0, interleave = concat_28_interleave_0, values = (gather_53, gather_54, var_7, var_6));
            tensor<fp16, [?, ?, 12, 32]> x_79_cast = reshape(shape = concat_28, x = x_77_cast);
            tensor<int32, [4]> var_579 = const()[name = tensor<string, []>("op_579"), val = tensor<int32, [4]>([0, 2, 1, 3])];
            tensor<int32, [3]> var_581_shape_cast = shape(x = x_81_cast);
            tensor<int32, []> gather_55_indices_0 = const()[name = tensor<string, []>("gather_55_indices_0"), val = tensor<int32, []>(0)];
            tensor<int32, []> gather_55_axis_0 = const()[name = tensor<string, []>("gather_55_axis_0"), val = tensor<int32, []>(0)];
            tensor<int32, []> gather_55 = gather(axis = gather_55_axis_0, indices = gather_55_indices_0, x = var_581_shape_cast);
            tensor<int32, []> gather_56_indices_0 = const()[name = tensor<string, []>("gather_56_indices_0"), val = tensor<int32, []>(1)];
            tensor<int32, []> gather_56_axis_0 = const()[name = tensor<string, []>("gather_56_axis_0"), val = tensor<int32, []>(0)];
            tensor<int32, []> gather_56 = gather(axis = gather_56_axis_0, indices = gather_56_indices_0, x = var_581_shape_cast);
            tensor<int32, []> concat_29_axis_0 = const()[name = tensor<string, []>("concat_29_axis_0"), val = tensor<int32, []>(0)];
            tensor<bool, []> concat_29_interleave_0 = const()[name = tensor<string, []>("concat_29_interleave_0"), val = tensor<bool, []>(false)];
            tensor<int32, [4]> concat_29 = concat(axis = concat_29_axis_0, interleave = concat_29_interleave_0, values = (gather_55, gather_56, var_7, var_6));
            tensor<fp16, [?, ?, 12, 32]> x_83_cast = reshape(shape = concat_29, x = x_81_cast);
            tensor<bool, []> attention_scores_25_transpose_x_0 = const()[name = tensor<string, []>("attention_scores_25_transpose_x_0"), val = tensor<bool, []>(false)];
            tensor<bool, []> attention_scores_25_transpose_y_0 = const()[name = tensor<string, []>("attention_scores_25_transpose_y_0"), val = tensor<bool, []>(false)];
            tensor<int32, [4]> transpose_24_perm_0 = const()[name = tensor<string, []>("transpose_24_perm_0"), val = tensor<int32, [4]>([0, 2, 1, 3])];
            tensor<int32, [4]> transpose_25_perm_0 = const()[name = tensor<string, []>("transpose_25_perm_0"), val = tensor<int32, [4]>([0, 2, 3, 1])];
            tensor<fp16, [?, 12, 32, ?]> transpose_57 = transpose(perm = transpose_25_perm_0, x = x_75_cast);
            tensor<fp16, [?, 12, ?, 32]> transpose_58 = transpose(perm = transpose_24_perm_0, x = x_83_cast);
            tensor<fp16, [?, 12, ?, ?]> attention_scores_25_cast = matmul(transpose_x = attention_scores_25_transpose_x_0, transpose_y = attention_scores_25_transpose_y_0, x = transpose_58, y = transpose_57);
            tensor<fp16, []> _inversed_attention_scores_27_y_0_to_fp16 = const()[name = tensor<string, []>("_inversed_attention_scores_27_y_0_to_fp16"), val = tensor<fp16, []>(0x1.6ap-3)];
            tensor<fp16, [?, 12, ?, ?]> _inversed_attention_scores_27_cast = mul(x = attention_scores_25_cast, y = _inversed_attention_scores_27_y_0_to_fp16);
            tensor<fp16, [?, 12, ?, ?]> input_143_cast = add(x = _inversed_attention_scores_27_cast, y = cast_356);
            tensor<fp16, [?, 12, ?, ?]> input_145_cast = softmax(axis = var_8, x = input_143_cast);
            tensor<bool, []> context_layer_25_transpose_x_0 = const()[name = tensor<string, []>("context_layer_25_transpose_x_0"), val = tensor<bool, []>(false)];
            tensor<bool, []> context_layer_25_transpose_y_0 = const()[name = tensor<string, []>("context_layer_25_transpose_y_0"), val = tensor<bool, []>(false)];
            tensor<fp16, [?, 12, ?, 32]> transpose_59 = transpose(perm = var_579, x = x_79_cast);
            tensor<fp16, [?, 12, ?, 32]> context_layer_25_cast = matmul(transpose_x = context_layer_25_transpose_x_0, transpose_y = context_layer_25_transpose_y_0, x = input_145_cast, y = transpose_59);
            tensor<int32, [4]> var_595 = const()[name = tensor<string, []>("op_595"), val = tensor<int32, [4]>([0, 2, 1, 3])];
            tensor<fp16, [?, ?, 12, 32]> transpose_56 = transpose(perm = var_595, x = context_layer_25_cast);
            tensor<int32, [4]> var_598_shape_cast = shape(x = transpose_56);
            tensor<int32, []> gather_57_indices_0 = const()[name = tensor<string, []>("gather_57_indices_0"), val = tensor<int32, []>(0)];
            tensor<int32, []> gather_57_axis_0 = const()[name = tensor<string, []>("gather_57_axis_0"), val = tensor<int32, []>(0)];
            tensor<int32, []> gather_57 = gather(axis = gather_57_axis_0, indices = gather_57_indices_0, x = var_598_shape_cast);
            tensor<int32, []> gather_58_indices_0 = const()[name = tensor<string, []>("gather_58_indices_0"), val = tensor<int32, []>(1)];
            tensor<int32, []> gather_58_axis_0 = const()[name = tensor<string, []>("gather_58_axis_0"), val = tensor<int32, []>(0)];
            tensor<int32, []> gather_58 = gather(axis = gather_58_axis_0, indices = gather_58_indices_0, x = var_598_shape_cast);
            tensor<int32, []> concat_30_axis_0 = const()[name = tensor<string, []>("concat_30_axis_0"), val = tensor<int32, []>(0)];
            tensor<bool, []> concat_30_interleave_0 = const()[name = tensor<string, []>("concat_30_interleave_0"), val = tensor<bool, []>(false)];
            tensor<int32, [3]> concat_30 = concat(axis = concat_30_axis_0, interleave = concat_30_interleave_0, values = (gather_57, gather_58, var_11));
            tensor<fp16, [?, ?, 384]> input_147_cast = reshape(shape = concat_30, x = transpose_56);
            tensor<fp16, [384, 384]> model_encoder_layer_6_attention_output_dense_weight_to_fp16 = const()[name = tensor<string, []>("model_encoder_layer_6_attention_output_dense_weight_to_fp16"), val = tensor<fp16, [384, 384]>(BLOBFILE(path = tensor<string, []>("@model_path/weights/weight.bin"), offset = tensor<uint64, []>(214612224)))];
            tensor<fp16, [384]> model_encoder_layer_6_attention_output_dense_bias_to_fp16 = const()[name = tensor<string, []>("model_encoder_layer_6_attention_output_dense_bias_to_fp16"), val = tensor<fp16, [384]>(BLOBFILE(path = tensor<string, []>("@model_path/weights/weight.bin"), offset = tensor<uint64, []>(214907200)))];
            tensor<fp16, [?, ?, 384]> input_149_cast = linear(bias = model_encoder_layer_6_attention_output_dense_bias_to_fp16, weight = model_encoder_layer_6_attention_output_dense_weight_to_fp16, x = input_147_cast);
            tensor<fp16, [?, ?, 384]> input_151_cast = add(x = input_149_cast, y = input_141_cast);
            tensor<int32, [1]> input_153_axes_0 = const()[name = tensor<string, []>("input_153_axes_0"), val = tensor<int32, [1]>([-1])];
            tensor<fp16, [384]> model_encoder_layer_6_attention_output_LayerNorm_weight_to_fp16 = const()[name = tensor<string, []>("model_encoder_layer_6_attention_output_LayerNorm_weight_to_fp16"), val = tensor<fp16, [384]>(BLOBFILE(path = tensor<string, []>("@model_path/weights/weight.bin"), offset = tensor<uint64, []>(214908032)))];
            tensor<fp16, [384]> model_encoder_layer_6_attention_output_LayerNorm_bias_to_fp16 = const()[name = tensor<string, []>("model_encoder_layer_6_attention_output_LayerNorm_bias_to_fp16"), val = tensor<fp16, [384]>(BLOBFILE(path = tensor<string, []>("@model_path/weights/weight.bin"), offset = tensor<uint64, []>(214908864)))];
            tensor<fp16, [?, ?, 384]> input_153_cast = layer_norm(axes = input_153_axes_0, beta = model_encoder_layer_6_attention_output_LayerNorm_bias_to_fp16, epsilon = var_10_to_fp16, gamma = model_encoder_layer_6_attention_output_LayerNorm_weight_to_fp16, x = input_151_cast);
            tensor<fp16, [1536, 384]> model_encoder_layer_6_intermediate_dense_weight_to_fp16 = const()[name = tensor<string, []>("model_encoder_layer_6_intermediate_dense_weight_to_fp16"), val = tensor<fp16, [1536, 384]>(BLOBFILE(path = tensor<string, []>("@model_path/weights/weight.bin"), offset = tensor<uint64, []>(214909696)))];
            tensor<fp16, [1536]> model_encoder_layer_6_intermediate_dense_bias_to_fp16 = const()[name = tensor<string, []>("model_encoder_layer_6_intermediate_dense_bias_to_fp16"), val = tensor<fp16, [1536]>(BLOBFILE(path = tensor<string, []>("@model_path/weights/weight.bin"), offset = tensor<uint64, []>(216089408)))];
            tensor<fp16, [?, ?, 1536]> input_155_cast = linear(bias = model_encoder_layer_6_intermediate_dense_bias_to_fp16, weight = model_encoder_layer_6_intermediate_dense_weight_to_fp16, x = input_153_cast);
            tensor<string, []> input_157_mode_0 = const()[name = tensor<string, []>("input_157_mode_0"), val = tensor<string, []>("EXACT")];
            tensor<fp16, [?, ?, 1536]> input_157_cast = gelu(mode = input_157_mode_0, x = input_155_cast);
            tensor<fp16, [384, 1536]> model_encoder_layer_6_output_dense_weight_to_fp16 = const()[name = tensor<string, []>("model_encoder_layer_6_output_dense_weight_to_fp16"), val = tensor<fp16, [384, 1536]>(BLOBFILE(path = tensor<string, []>("@model_path/weights/weight.bin"), offset = tensor<uint64, []>(216092544)))];
            tensor<fp16, [384]> model_encoder_layer_6_output_dense_bias_to_fp16 = const()[name = tensor<string, []>("model_encoder_layer_6_output_dense_bias_to_fp16"), val = tensor<fp16, [384]>(BLOBFILE(path = tensor<string, []>("@model_path/weights/weight.bin"), offset = tensor<uint64, []>(217272256)))];
            tensor<fp16, [?, ?, 384]> input_159_cast = linear(bias = model_encoder_layer_6_output_dense_bias_to_fp16, weight = model_encoder_layer_6_output_dense_weight_to_fp16, x = input_157_cast);
            tensor<fp16, [?, ?, 384]> input_161_cast = add(x = input_159_cast, y = input_153_cast);
            tensor<int32, [1]> input_163_axes_0 = const()[name = tensor<string, []>("input_163_axes_0"), val = tensor<int32, [1]>([-1])];
            tensor<fp16, [384]> model_encoder_layer_6_output_LayerNorm_weight_to_fp16 = const()[name = tensor<string, []>("model_encoder_layer_6_output_LayerNorm_weight_to_fp16"), val = tensor<fp16, [384]>(BLOBFILE(path = tensor<string, []>("@model_path/weights/weight.bin"), offset = tensor<uint64, []>(217273088)))];
            tensor<fp16, [384]> model_encoder_layer_6_output_LayerNorm_bias_to_fp16 = const()[name = tensor<string, []>("model_encoder_layer_6_output_LayerNorm_bias_to_fp16"), val = tensor<fp16, [384]>(BLOBFILE(path = tensor<string, []>("@model_path/weights/weight.bin"), offset = tensor<uint64, []>(217273920)))];
            tensor<fp16, [?, ?, 384]> input_163_cast = layer_norm(axes = input_163_axes_0, beta = model_encoder_layer_6_output_LayerNorm_bias_to_fp16, epsilon = var_10_to_fp16, gamma = model_encoder_layer_6_output_LayerNorm_weight_to_fp16, x = input_161_cast);
            tensor<fp16, [384, 384]> model_encoder_layer_7_attention_self_query_weight_to_fp16 = const()[name = tensor<string, []>("model_encoder_layer_7_attention_self_query_weight_to_fp16"), val = tensor<fp16, [384, 384]>(BLOBFILE(path = tensor<string, []>("@model_path/weights/weight.bin"), offset = tensor<uint64, []>(217274752)))];
            tensor<fp16, [384]> model_encoder_layer_7_attention_self_query_bias_to_fp16 = const()[name = tensor<string, []>("model_encoder_layer_7_attention_self_query_bias_to_fp16"), val = tensor<fp16, [384]>(BLOBFILE(path = tensor<string, []>("@model_path/weights/weight.bin"), offset = tensor<uint64, []>(217569728)))];
            tensor<fp16, [?, ?, 384]> x_93_cast = linear(bias = model_encoder_layer_7_attention_self_query_bias_to_fp16, weight = model_encoder_layer_7_attention_self_query_weight_to_fp16, x = input_163_cast);
            tensor<fp16, [384, 384]> model_encoder_layer_7_attention_self_key_weight_to_fp16 = const()[name = tensor<string, []>("model_encoder_layer_7_attention_self_key_weight_to_fp16"), val = tensor<fp16, [384, 384]>(BLOBFILE(path = tensor<string, []>("@model_path/weights/weight.bin"), offset = tensor<uint64, []>(217570560)))];
            tensor<fp16, [384]> model_encoder_layer_7_attention_self_key_bias_to_fp16 = const()[name = tensor<string, []>("model_encoder_layer_7_attention_self_key_bias_to_fp16"), val = tensor<fp16, [384]>(BLOBFILE(path = tensor<string, []>("@model_path/weights/weight.bin"), offset = tensor<uint64, []>(217865536)))];
            tensor<fp16, [?, ?, 384]> x_85_cast = linear(bias = model_encoder_layer_7_attention_self_key_bias_to_fp16, weight = model_encoder_layer_7_attention_self_key_weight_to_fp16, x = input_163_cast);
            tensor<int32, [3]> var_643_shape_cast = shape(x = x_85_cast);
            tensor<int32, []> gather_59_indices_0 = const()[name = tensor<string, []>("gather_59_indices_0"), val = tensor<int32, []>(0)];
            tensor<int32, []> gather_59_axis_0 = const()[name = tensor<string, []>("gather_59_axis_0"), val = tensor<int32, []>(0)];
            tensor<int32, []> gather_59 = gather(axis = gather_59_axis_0, indices = gather_59_indices_0, x = var_643_shape_cast);
            tensor<int32, []> gather_60_indices_0 = const()[name = tensor<string, []>("gather_60_indices_0"), val = tensor<int32, []>(1)];
            tensor<int32, []> gather_60_axis_0 = const()[name = tensor<string, []>("gather_60_axis_0"), val = tensor<int32, []>(0)];
            tensor<int32, []> gather_60 = gather(axis = gather_60_axis_0, indices = gather_60_indices_0, x = var_643_shape_cast);
            tensor<int32, []> concat_31_axis_0 = const()[name = tensor<string, []>("concat_31_axis_0"), val = tensor<int32, []>(0)];
            tensor<bool, []> concat_31_interleave_0 = const()[name = tensor<string, []>("concat_31_interleave_0"), val = tensor<bool, []>(false)];
            tensor<int32, [4]> concat_31 = concat(axis = concat_31_axis_0, interleave = concat_31_interleave_0, values = (gather_59, gather_60, var_7, var_6));
            tensor<fp16, [?, ?, 12, 32]> x_87_cast = reshape(shape = concat_31, x = x_85_cast);
            tensor<fp16, [384, 384]> model_encoder_layer_7_attention_self_value_weight_to_fp16 = const()[name = tensor<string, []>("model_encoder_layer_7_attention_self_value_weight_to_fp16"), val = tensor<fp16, [384, 384]>(BLOBFILE(path = tensor<string, []>("@model_path/weights/weight.bin"), offset = tensor<uint64, []>(217866368)))];
            tensor<fp16, [384]> model_encoder_layer_7_attention_self_value_bias_to_fp16 = const()[name = tensor<string, []>("model_encoder_layer_7_attention_self_value_bias_to_fp16"), val = tensor<fp16, [384]>(BLOBFILE(path = tensor<string, []>("@model_path/weights/weight.bin"), offset = tensor<uint64, []>(218161344)))];
            tensor<fp16, [?, ?, 384]> x_89_cast = linear(bias = model_encoder_layer_7_attention_self_value_bias_to_fp16, weight = model_encoder_layer_7_attention_self_value_weight_to_fp16, x = input_163_cast);
            tensor<int32, [3]> var_652_shape_cast = shape(x = x_89_cast);
            tensor<int32, []> gather_61_indices_0 = const()[name = tensor<string, []>("gather_61_indices_0"), val = tensor<int32, []>(0)];
            tensor<int32, []> gather_61_axis_0 = const()[name = tensor<string, []>("gather_61_axis_0"), val = tensor<int32, []>(0)];
            tensor<int32, []> gather_61 = gather(axis = gather_61_axis_0, indices = gather_61_indices_0, x = var_652_shape_cast);
            tensor<int32, []> gather_62_indices_0 = const()[name = tensor<string, []>("gather_62_indices_0"), val = tensor<int32, []>(1)];
            tensor<int32, []> gather_62_axis_0 = const()[name = tensor<string, []>("gather_62_axis_0"), val = tensor<int32, []>(0)];
            tensor<int32, []> gather_62 = gather(axis = gather_62_axis_0, indices = gather_62_indices_0, x = var_652_shape_cast);
            tensor<int32, []> concat_32_axis_0 = const()[name = tensor<string, []>("concat_32_axis_0"), val = tensor<int32, []>(0)];
            tensor<bool, []> concat_32_interleave_0 = const()[name = tensor<string, []>("concat_32_interleave_0"), val = tensor<bool, []>(false)];
            tensor<int32, [4]> concat_32 = concat(axis = concat_32_axis_0, interleave = concat_32_interleave_0, values = (gather_61, gather_62, var_7, var_6));
            tensor<fp16, [?, ?, 12, 32]> x_91_cast = reshape(shape = concat_32, x = x_89_cast);
            tensor<int32, [4]> var_656 = const()[name = tensor<string, []>("op_656"), val = tensor<int32, [4]>([0, 2, 1, 3])];
            tensor<int32, [3]> var_658_shape_cast = shape(x = x_93_cast);
            tensor<int32, []> gather_63_indices_0 = const()[name = tensor<string, []>("gather_63_indices_0"), val = tensor<int32, []>(0)];
            tensor<int32, []> gather_63_axis_0 = const()[name = tensor<string, []>("gather_63_axis_0"), val = tensor<int32, []>(0)];
            tensor<int32, []> gather_63 = gather(axis = gather_63_axis_0, indices = gather_63_indices_0, x = var_658_shape_cast);
            tensor<int32, []> gather_64_indices_0 = const()[name = tensor<string, []>("gather_64_indices_0"), val = tensor<int32, []>(1)];
            tensor<int32, []> gather_64_axis_0 = const()[name = tensor<string, []>("gather_64_axis_0"), val = tensor<int32, []>(0)];
            tensor<int32, []> gather_64 = gather(axis = gather_64_axis_0, indices = gather_64_indices_0, x = var_658_shape_cast);
            tensor<int32, []> concat_33_axis_0 = const()[name = tensor<string, []>("concat_33_axis_0"), val = tensor<int32, []>(0)];
            tensor<bool, []> concat_33_interleave_0 = const()[name = tensor<string, []>("concat_33_interleave_0"), val = tensor<bool, []>(false)];
            tensor<int32, [4]> concat_33 = concat(axis = concat_33_axis_0, interleave = concat_33_interleave_0, values = (gather_63, gather_64, var_7, var_6));
            tensor<fp16, [?, ?, 12, 32]> x_95_cast = reshape(shape = concat_33, x = x_93_cast);
            tensor<bool, []> attention_scores_29_transpose_x_0 = const()[name = tensor<string, []>("attention_scores_29_transpose_x_0"), val = tensor<bool, []>(false)];
            tensor<bool, []> attention_scores_29_transpose_y_0 = const()[name = tensor<string, []>("attention_scores_29_transpose_y_0"), val = tensor<bool, []>(false)];
            tensor<int32, [4]> transpose_26_perm_0 = const()[name = tensor<string, []>("transpose_26_perm_0"), val = tensor<int32, [4]>([0, 2, 1, 3])];
            tensor<int32, [4]> transpose_27_perm_0 = const()[name = tensor<string, []>("transpose_27_perm_0"), val = tensor<int32, [4]>([0, 2, 3, 1])];
            tensor<fp16, [?, 12, 32, ?]> transpose_53 = transpose(perm = transpose_27_perm_0, x = x_87_cast);
            tensor<fp16, [?, 12, ?, 32]> transpose_54 = transpose(perm = transpose_26_perm_0, x = x_95_cast);
            tensor<fp16, [?, 12, ?, ?]> attention_scores_29_cast = matmul(transpose_x = attention_scores_29_transpose_x_0, transpose_y = attention_scores_29_transpose_y_0, x = transpose_54, y = transpose_53);
            tensor<fp16, []> _inversed_attention_scores_31_y_0_to_fp16 = const()[name = tensor<string, []>("_inversed_attention_scores_31_y_0_to_fp16"), val = tensor<fp16, []>(0x1.6ap-3)];
            tensor<fp16, [?, 12, ?, ?]> _inversed_attention_scores_31_cast = mul(x = attention_scores_29_cast, y = _inversed_attention_scores_31_y_0_to_fp16);
            tensor<fp16, [?, 12, ?, ?]> input_165_cast = add(x = _inversed_attention_scores_31_cast, y = cast_356);
            tensor<fp16, [?, 12, ?, ?]> input_167_cast = softmax(axis = var_8, x = input_165_cast);
            tensor<bool, []> context_layer_29_transpose_x_0 = const()[name = tensor<string, []>("context_layer_29_transpose_x_0"), val = tensor<bool, []>(false)];
            tensor<bool, []> context_layer_29_transpose_y_0 = const()[name = tensor<string, []>("context_layer_29_transpose_y_0"), val = tensor<bool, []>(false)];
            tensor<fp16, [?, 12, ?, 32]> transpose_55 = transpose(perm = var_656, x = x_91_cast);
            tensor<fp16, [?, 12, ?, 32]> context_layer_29_cast = matmul(transpose_x = context_layer_29_transpose_x_0, transpose_y = context_layer_29_transpose_y_0, x = input_167_cast, y = transpose_55);
            tensor<int32, [4]> var_672 = const()[name = tensor<string, []>("op_672"), val = tensor<int32, [4]>([0, 2, 1, 3])];
            tensor<fp16, [?, ?, 12, 32]> transpose_52 = transpose(perm = var_672, x = context_layer_29_cast);
            tensor<int32, [4]> var_675_shape_cast = shape(x = transpose_52);
            tensor<int32, []> gather_65_indices_0 = const()[name = tensor<string, []>("gather_65_indices_0"), val = tensor<int32, []>(0)];
            tensor<int32, []> gather_65_axis_0 = const()[name = tensor<string, []>("gather_65_axis_0"), val = tensor<int32, []>(0)];
            tensor<int32, []> gather_65 = gather(axis = gather_65_axis_0, indices = gather_65_indices_0, x = var_675_shape_cast);
            tensor<int32, []> gather_66_indices_0 = const()[name = tensor<string, []>("gather_66_indices_0"), val = tensor<int32, []>(1)];
            tensor<int32, []> gather_66_axis_0 = const()[name = tensor<string, []>("gather_66_axis_0"), val = tensor<int32, []>(0)];
            tensor<int32, []> gather_66 = gather(axis = gather_66_axis_0, indices = gather_66_indices_0, x = var_675_shape_cast);
            tensor<int32, []> concat_34_axis_0 = const()[name = tensor<string, []>("concat_34_axis_0"), val = tensor<int32, []>(0)];
            tensor<bool, []> concat_34_interleave_0 = const()[name = tensor<string, []>("concat_34_interleave_0"), val = tensor<bool, []>(false)];
            tensor<int32, [3]> concat_34 = concat(axis = concat_34_axis_0, interleave = concat_34_interleave_0, values = (gather_65, gather_66, var_11));
            tensor<fp16, [?, ?, 384]> input_169_cast = reshape(shape = concat_34, x = transpose_52);
            tensor<fp16, [384, 384]> model_encoder_layer_7_attention_output_dense_weight_to_fp16 = const()[name = tensor<string, []>("model_encoder_layer_7_attention_output_dense_weight_to_fp16"), val = tensor<fp16, [384, 384]>(BLOBFILE(path = tensor<string, []>("@model_path/weights/weight.bin"), offset = tensor<uint64, []>(218162176)))];
            tensor<fp16, [384]> model_encoder_layer_7_attention_output_dense_bias_to_fp16 = const()[name = tensor<string, []>("model_encoder_layer_7_attention_output_dense_bias_to_fp16"), val = tensor<fp16, [384]>(BLOBFILE(path = tensor<string, []>("@model_path/weights/weight.bin"), offset = tensor<uint64, []>(218457152)))];
            tensor<fp16, [?, ?, 384]> input_171_cast = linear(bias = model_encoder_layer_7_attention_output_dense_bias_to_fp16, weight = model_encoder_layer_7_attention_output_dense_weight_to_fp16, x = input_169_cast);
            tensor<fp16, [?, ?, 384]> input_173_cast = add(x = input_171_cast, y = input_163_cast);
            tensor<int32, [1]> input_175_axes_0 = const()[name = tensor<string, []>("input_175_axes_0"), val = tensor<int32, [1]>([-1])];
            tensor<fp16, [384]> model_encoder_layer_7_attention_output_LayerNorm_weight_to_fp16 = const()[name = tensor<string, []>("model_encoder_layer_7_attention_output_LayerNorm_weight_to_fp16"), val = tensor<fp16, [384]>(BLOBFILE(path = tensor<string, []>("@model_path/weights/weight.bin"), offset = tensor<uint64, []>(218457984)))];
            tensor<fp16, [384]> model_encoder_layer_7_attention_output_LayerNorm_bias_to_fp16 = const()[name = tensor<string, []>("model_encoder_layer_7_attention_output_LayerNorm_bias_to_fp16"), val = tensor<fp16, [384]>(BLOBFILE(path = tensor<string, []>("@model_path/weights/weight.bin"), offset = tensor<uint64, []>(218458816)))];
            tensor<fp16, [?, ?, 384]> input_175_cast = layer_norm(axes = input_175_axes_0, beta = model_encoder_layer_7_attention_output_LayerNorm_bias_to_fp16, epsilon = var_10_to_fp16, gamma = model_encoder_layer_7_attention_output_LayerNorm_weight_to_fp16, x = input_173_cast);
            tensor<fp16, [1536, 384]> model_encoder_layer_7_intermediate_dense_weight_to_fp16 = const()[name = tensor<string, []>("model_encoder_layer_7_intermediate_dense_weight_to_fp16"), val = tensor<fp16, [1536, 384]>(BLOBFILE(path = tensor<string, []>("@model_path/weights/weight.bin"), offset = tensor<uint64, []>(218459648)))];
            tensor<fp16, [1536]> model_encoder_layer_7_intermediate_dense_bias_to_fp16 = const()[name = tensor<string, []>("model_encoder_layer_7_intermediate_dense_bias_to_fp16"), val = tensor<fp16, [1536]>(BLOBFILE(path = tensor<string, []>("@model_path/weights/weight.bin"), offset = tensor<uint64, []>(219639360)))];
            tensor<fp16, [?, ?, 1536]> input_177_cast = linear(bias = model_encoder_layer_7_intermediate_dense_bias_to_fp16, weight = model_encoder_layer_7_intermediate_dense_weight_to_fp16, x = input_175_cast);
            tensor<string, []> input_179_mode_0 = const()[name = tensor<string, []>("input_179_mode_0"), val = tensor<string, []>("EXACT")];
            tensor<fp16, [?, ?, 1536]> input_179_cast = gelu(mode = input_179_mode_0, x = input_177_cast);
            tensor<fp16, [384, 1536]> model_encoder_layer_7_output_dense_weight_to_fp16 = const()[name = tensor<string, []>("model_encoder_layer_7_output_dense_weight_to_fp16"), val = tensor<fp16, [384, 1536]>(BLOBFILE(path = tensor<string, []>("@model_path/weights/weight.bin"), offset = tensor<uint64, []>(219642496)))];
            tensor<fp16, [384]> model_encoder_layer_7_output_dense_bias_to_fp16 = const()[name = tensor<string, []>("model_encoder_layer_7_output_dense_bias_to_fp16"), val = tensor<fp16, [384]>(BLOBFILE(path = tensor<string, []>("@model_path/weights/weight.bin"), offset = tensor<uint64, []>(220822208)))];
            tensor<fp16, [?, ?, 384]> input_181_cast = linear(bias = model_encoder_layer_7_output_dense_bias_to_fp16, weight = model_encoder_layer_7_output_dense_weight_to_fp16, x = input_179_cast);
            tensor<fp16, [?, ?, 384]> input_183_cast = add(x = input_181_cast, y = input_175_cast);
            tensor<int32, [1]> input_185_axes_0 = const()[name = tensor<string, []>("input_185_axes_0"), val = tensor<int32, [1]>([-1])];
            tensor<fp16, [384]> model_encoder_layer_7_output_LayerNorm_weight_to_fp16 = const()[name = tensor<string, []>("model_encoder_layer_7_output_LayerNorm_weight_to_fp16"), val = tensor<fp16, [384]>(BLOBFILE(path = tensor<string, []>("@model_path/weights/weight.bin"), offset = tensor<uint64, []>(220823040)))];
            tensor<fp16, [384]> model_encoder_layer_7_output_LayerNorm_bias_to_fp16 = const()[name = tensor<string, []>("model_encoder_layer_7_output_LayerNorm_bias_to_fp16"), val = tensor<fp16, [384]>(BLOBFILE(path = tensor<string, []>("@model_path/weights/weight.bin"), offset = tensor<uint64, []>(220823872)))];
            tensor<fp16, [?, ?, 384]> input_185_cast = layer_norm(axes = input_185_axes_0, beta = model_encoder_layer_7_output_LayerNorm_bias_to_fp16, epsilon = var_10_to_fp16, gamma = model_encoder_layer_7_output_LayerNorm_weight_to_fp16, x = input_183_cast);
            tensor<fp16, [384, 384]> model_encoder_layer_8_attention_self_query_weight_to_fp16 = const()[name = tensor<string, []>("model_encoder_layer_8_attention_self_query_weight_to_fp16"), val = tensor<fp16, [384, 384]>(BLOBFILE(path = tensor<string, []>("@model_path/weights/weight.bin"), offset = tensor<uint64, []>(220824704)))];
            tensor<fp16, [384]> model_encoder_layer_8_attention_self_query_bias_to_fp16 = const()[name = tensor<string, []>("model_encoder_layer_8_attention_self_query_bias_to_fp16"), val = tensor<fp16, [384]>(BLOBFILE(path = tensor<string, []>("@model_path/weights/weight.bin"), offset = tensor<uint64, []>(221119680)))];
            tensor<fp16, [?, ?, 384]> x_105_cast = linear(bias = model_encoder_layer_8_attention_self_query_bias_to_fp16, weight = model_encoder_layer_8_attention_self_query_weight_to_fp16, x = input_185_cast);
            tensor<fp16, [384, 384]> model_encoder_layer_8_attention_self_key_weight_to_fp16 = const()[name = tensor<string, []>("model_encoder_layer_8_attention_self_key_weight_to_fp16"), val = tensor<fp16, [384, 384]>(BLOBFILE(path = tensor<string, []>("@model_path/weights/weight.bin"), offset = tensor<uint64, []>(221120512)))];
            tensor<fp16, [384]> model_encoder_layer_8_attention_self_key_bias_to_fp16 = const()[name = tensor<string, []>("model_encoder_layer_8_attention_self_key_bias_to_fp16"), val = tensor<fp16, [384]>(BLOBFILE(path = tensor<string, []>("@model_path/weights/weight.bin"), offset = tensor<uint64, []>(221415488)))];
            tensor<fp16, [?, ?, 384]> x_97_cast = linear(bias = model_encoder_layer_8_attention_self_key_bias_to_fp16, weight = model_encoder_layer_8_attention_self_key_weight_to_fp16, x = input_185_cast);
            tensor<int32, [3]> var_720_shape_cast = shape(x = x_97_cast);
            tensor<int32, []> gather_67_indices_0 = const()[name = tensor<string, []>("gather_67_indices_0"), val = tensor<int32, []>(0)];
            tensor<int32, []> gather_67_axis_0 = const()[name = tensor<string, []>("gather_67_axis_0"), val = tensor<int32, []>(0)];
            tensor<int32, []> gather_67 = gather(axis = gather_67_axis_0, indices = gather_67_indices_0, x = var_720_shape_cast);
            tensor<int32, []> gather_68_indices_0 = const()[name = tensor<string, []>("gather_68_indices_0"), val = tensor<int32, []>(1)];
            tensor<int32, []> gather_68_axis_0 = const()[name = tensor<string, []>("gather_68_axis_0"), val = tensor<int32, []>(0)];
            tensor<int32, []> gather_68 = gather(axis = gather_68_axis_0, indices = gather_68_indices_0, x = var_720_shape_cast);
            tensor<int32, []> concat_35_axis_0 = const()[name = tensor<string, []>("concat_35_axis_0"), val = tensor<int32, []>(0)];
            tensor<bool, []> concat_35_interleave_0 = const()[name = tensor<string, []>("concat_35_interleave_0"), val = tensor<bool, []>(false)];
            tensor<int32, [4]> concat_35 = concat(axis = concat_35_axis_0, interleave = concat_35_interleave_0, values = (gather_67, gather_68, var_7, var_6));
            tensor<fp16, [?, ?, 12, 32]> x_99_cast = reshape(shape = concat_35, x = x_97_cast);
            tensor<fp16, [384, 384]> model_encoder_layer_8_attention_self_value_weight_to_fp16 = const()[name = tensor<string, []>("model_encoder_layer_8_attention_self_value_weight_to_fp16"), val = tensor<fp16, [384, 384]>(BLOBFILE(path = tensor<string, []>("@model_path/weights/weight.bin"), offset = tensor<uint64, []>(221416320)))];
            tensor<fp16, [384]> model_encoder_layer_8_attention_self_value_bias_to_fp16 = const()[name = tensor<string, []>("model_encoder_layer_8_attention_self_value_bias_to_fp16"), val = tensor<fp16, [384]>(BLOBFILE(path = tensor<string, []>("@model_path/weights/weight.bin"), offset = tensor<uint64, []>(221711296)))];
            tensor<fp16, [?, ?, 384]> x_101_cast = linear(bias = model_encoder_layer_8_attention_self_value_bias_to_fp16, weight = model_encoder_layer_8_attention_self_value_weight_to_fp16, x = input_185_cast);
            tensor<int32, [3]> var_729_shape_cast = shape(x = x_101_cast);
            tensor<int32, []> gather_69_indices_0 = const()[name = tensor<string, []>("gather_69_indices_0"), val = tensor<int32, []>(0)];
            tensor<int32, []> gather_69_axis_0 = const()[name = tensor<string, []>("gather_69_axis_0"), val = tensor<int32, []>(0)];
            tensor<int32, []> gather_69 = gather(axis = gather_69_axis_0, indices = gather_69_indices_0, x = var_729_shape_cast);
            tensor<int32, []> gather_70_indices_0 = const()[name = tensor<string, []>("gather_70_indices_0"), val = tensor<int32, []>(1)];
            tensor<int32, []> gather_70_axis_0 = const()[name = tensor<string, []>("gather_70_axis_0"), val = tensor<int32, []>(0)];
            tensor<int32, []> gather_70 = gather(axis = gather_70_axis_0, indices = gather_70_indices_0, x = var_729_shape_cast);
            tensor<int32, []> concat_36_axis_0 = const()[name = tensor<string, []>("concat_36_axis_0"), val = tensor<int32, []>(0)];
            tensor<bool, []> concat_36_interleave_0 = const()[name = tensor<string, []>("concat_36_interleave_0"), val = tensor<bool, []>(false)];
            tensor<int32, [4]> concat_36 = concat(axis = concat_36_axis_0, interleave = concat_36_interleave_0, values = (gather_69, gather_70, var_7, var_6));
            tensor<fp16, [?, ?, 12, 32]> x_103_cast = reshape(shape = concat_36, x = x_101_cast);
            tensor<int32, [4]> var_733 = const()[name = tensor<string, []>("op_733"), val = tensor<int32, [4]>([0, 2, 1, 3])];
            tensor<int32, [3]> var_735_shape_cast = shape(x = x_105_cast);
            tensor<int32, []> gather_71_indices_0 = const()[name = tensor<string, []>("gather_71_indices_0"), val = tensor<int32, []>(0)];
            tensor<int32, []> gather_71_axis_0 = const()[name = tensor<string, []>("gather_71_axis_0"), val = tensor<int32, []>(0)];
            tensor<int32, []> gather_71 = gather(axis = gather_71_axis_0, indices = gather_71_indices_0, x = var_735_shape_cast);
            tensor<int32, []> gather_72_indices_0 = const()[name = tensor<string, []>("gather_72_indices_0"), val = tensor<int32, []>(1)];
            tensor<int32, []> gather_72_axis_0 = const()[name = tensor<string, []>("gather_72_axis_0"), val = tensor<int32, []>(0)];
            tensor<int32, []> gather_72 = gather(axis = gather_72_axis_0, indices = gather_72_indices_0, x = var_735_shape_cast);
            tensor<int32, []> concat_37_axis_0 = const()[name = tensor<string, []>("concat_37_axis_0"), val = tensor<int32, []>(0)];
            tensor<bool, []> concat_37_interleave_0 = const()[name = tensor<string, []>("concat_37_interleave_0"), val = tensor<bool, []>(false)];
            tensor<int32, [4]> concat_37 = concat(axis = concat_37_axis_0, interleave = concat_37_interleave_0, values = (gather_71, gather_72, var_7, var_6));
            tensor<fp16, [?, ?, 12, 32]> x_107_cast = reshape(shape = concat_37, x = x_105_cast);
            tensor<bool, []> attention_scores_33_transpose_x_0 = const()[name = tensor<string, []>("attention_scores_33_transpose_x_0"), val = tensor<bool, []>(false)];
            tensor<bool, []> attention_scores_33_transpose_y_0 = const()[name = tensor<string, []>("attention_scores_33_transpose_y_0"), val = tensor<bool, []>(false)];
            tensor<int32, [4]> transpose_28_perm_0 = const()[name = tensor<string, []>("transpose_28_perm_0"), val = tensor<int32, [4]>([0, 2, 1, 3])];
            tensor<int32, [4]> transpose_29_perm_0 = const()[name = tensor<string, []>("transpose_29_perm_0"), val = tensor<int32, [4]>([0, 2, 3, 1])];
            tensor<fp16, [?, 12, 32, ?]> transpose_49 = transpose(perm = transpose_29_perm_0, x = x_99_cast);
            tensor<fp16, [?, 12, ?, 32]> transpose_50 = transpose(perm = transpose_28_perm_0, x = x_107_cast);
            tensor<fp16, [?, 12, ?, ?]> attention_scores_33_cast = matmul(transpose_x = attention_scores_33_transpose_x_0, transpose_y = attention_scores_33_transpose_y_0, x = transpose_50, y = transpose_49);
            tensor<fp16, []> _inversed_attention_scores_35_y_0_to_fp16 = const()[name = tensor<string, []>("_inversed_attention_scores_35_y_0_to_fp16"), val = tensor<fp16, []>(0x1.6ap-3)];
            tensor<fp16, [?, 12, ?, ?]> _inversed_attention_scores_35_cast = mul(x = attention_scores_33_cast, y = _inversed_attention_scores_35_y_0_to_fp16);
            tensor<fp16, [?, 12, ?, ?]> input_187_cast = add(x = _inversed_attention_scores_35_cast, y = cast_356);
            tensor<fp16, [?, 12, ?, ?]> input_189_cast = softmax(axis = var_8, x = input_187_cast);
            tensor<bool, []> context_layer_33_transpose_x_0 = const()[name = tensor<string, []>("context_layer_33_transpose_x_0"), val = tensor<bool, []>(false)];
            tensor<bool, []> context_layer_33_transpose_y_0 = const()[name = tensor<string, []>("context_layer_33_transpose_y_0"), val = tensor<bool, []>(false)];
            tensor<fp16, [?, 12, ?, 32]> transpose_51 = transpose(perm = var_733, x = x_103_cast);
            tensor<fp16, [?, 12, ?, 32]> context_layer_33_cast = matmul(transpose_x = context_layer_33_transpose_x_0, transpose_y = context_layer_33_transpose_y_0, x = input_189_cast, y = transpose_51);
…
            tensor<fp16, [384]> model_encoder_layer_9_attention_self_query_bias_to_fp16 = const()[name = tensor<string, []>("model_encoder_layer_9_attention_self_query_bias_to_fp16"), val = tensor<fp16, [384]>(BLOBFILE(path = tensor<string, []>("@model_path/weights/weight.bin"), offset = tensor<uint64, []>(224669632)))];
            tensor<fp16, [?, ?, 384]> x_117_cast = linear(bias = model_encoder_layer_9_attention_self_query_bias_to_fp16, weight = model_encoder_layer_9_attention_self_query_weight_to_fp16, x = input_207_cast);
            tensor<fp16, [384, 384]> model_encoder_layer_9_attention_self_key_weight_to_fp16 = const()[name = tensor<string, []>("model_encoder_layer_9_attention_self_key_weight_to_fp16"), val = tensor<fp16, [384, 384]>(BLOBFILE(path = tensor<string, []>("@model_path/weights/weight.bin"), offset = tensor<uint64, []>(224670464)))];
            tensor<fp16, [384]> model_encoder_layer_9_attention_self_key_bias_to_fp16 = const()[name = tensor<string, []>("model_encoder_layer_9_attention_self_key_bias_to_fp16"), val = tensor<fp16, [384]>(BLOBFILE(path = tensor<string, []>("@model_path/weights/weight.bin"), offset = tensor<uint64, []>(224965440)))];
            tensor<fp16, [?, ?, 384]> x_109_cast = linear(bias = model_encoder_layer_9_attention_self_key_bias_to_fp16, weight = model_encoder_layer_9_attention_self_key_weight_to_fp16, x = input_207_cast);
            tensor<int32, [3]> var_797_shape_cast = shape(x = x_109_cast);
            tensor<int32, []> gather_75_indices_0 = const()[name = tensor<string, []>("gather_75_indices_0"), val = tensor<int32, []>(0)];
            tensor<int32, []> gather_75_axis_0 = const()[name = tensor<string, []>("gather_75_axis_0"), val = tensor<int32, []>(0)];
            tensor<int32, []> gather_75 = gather(axis = gather_75_axis_0, indices = gather_75_indices_0, x = var_797_shape_cast);
            tensor<int32, []> gather_76_indices_0 = const()[name = tensor<string, []>("gather_76_indices_0"), val = tensor<int32, []>(1)];
            tensor<int32, []> gather_76_axis_0 = const()[name = tensor<string, []>("gather_76_axis_0"), val = tensor<int32, []>(0)];
            tensor<int32, []> gather_76 = gather(axis = gather_76_axis_0, indices = gather_76_indices_0, x = var_797_shape_cast);
            tensor<int32, []> concat_39_axis_0 = const()[name = tensor<string, []>("concat_39_axis_0"), val = tensor<int32, []>(0)];
            tensor<bool, []> concat_39_interleave_0 = const()[name = tensor<string, []>("concat_39_interleave_0"), val = tensor<bool, []>(false)];
            tensor<int32, [4]> concat_39 = concat(axis = concat_39_axis_0, interleave = concat_39_interleave_0, values = (gather_75, gather_76, var_7, var_6));
            tensor<fp16, [?, ?, 12, 32]> x_111_cast = reshape(shape = concat_39, x = x_109_cast);
            tensor<fp16, [384, 384]> model_encoder_layer_9_attention_self_value_weight_to_fp16 = const()[name = tensor<string, []>("model_encoder_layer_9_attention_self_value_weight_to_fp16"), val = tensor<fp16, [384, 384]>(BLOBFILE(path = tensor<string, []>("@model_path/weights/weight.bin"), offset = tensor<uint64, []>(224966272)))];
            tensor<fp16, [384]> model_encoder_layer_9_attention_self_value_bias_to_fp16 = const()[name = tensor<string, []>("model_encoder_layer_9_attention_self_value_bias_to_fp16"), val = tensor<fp16, [384]>(BLOBFILE(path = tensor<string, []>("@model_path/weights/weight.bin"), offset = tensor<uint64, []>(225261248)))];
            tensor<fp16, [?, ?, 384]> x_113_cast = linear(bias = model_encoder_layer_9_attention_self_value_bias_to_fp16, weight = model_encoder_layer_9_attention_self_value_weight_to_fp16, x = input_207_cast);
            tensor<int32, [3]> var_806_shape_cast = shape(x = x_113_cast);
            tensor<int32, []> gather_77_indices_0 = const()[name = tensor<string, []>("gather_77_indices_0"), val = tensor<int32, []>(0)];
            tensor<int32, []> gather_77_axis_0 = const()[name = tensor<string, []>("gather_77_axis_0"), val = tensor<int32, []>(0)];
            tensor<int32, []> gather_77 = gather(axis = gather_77_axis_0, indices = gather_77_indices_0, x = var_806_shape_cast);
            tensor<int32, []> gather_78_indices_0 = const()[name = tensor<string, []>("gather_78_indices_0"), val = tensor<int32, []>(1)];
            tensor<int32, []> gather_78_axis_0 = const()[name = tensor<string, []>("gather_78_axis_0"), val = tensor<int32, []>(0)];
            tensor<int32, []> gather_78 = gather(axis = gather_78_axis_0, indices = gather_78_indices_0, x = var_806_shape_cast);
            tensor<int32, []> concat_40_axis_0 = const()[name = tensor<string, []>("concat_40_axis_0"), val = tensor<int32, []>(0)];
            tensor<bool, []> concat_40_interleave_0 = const()[name = tensor<string, []>("concat_40_interleave_0"), val = tensor<bool, []>(false)];
            tensor<int32, [4]> concat_40 = concat(axis = concat_40_axis_0, interleave = concat_40_interleave_0, values = (gather_77, gather_78, var_7, var_6));
            tensor<fp16, [?, ?, 12, 32]> x_115_cast = reshape(shape = concat_40, x = x_113_cast);
            tensor<int32, [4]> var_810 = const()[name = tensor<string, []>("op_810"), val = tensor<int32, [4]>([0, 2, 1, 3])];
            tensor<int32, [3]> var_812_shape_cast = shape(x = x_117_cast);
            tensor<int32, []> gather_79_indices_0 = const()[name = tensor<string, []>("gather_79_indices_0"), val = tensor<int32, []>(0)];
            tensor<int32, []> gather_79_axis_0 = const()[name = tensor<string, []>("gather_79_axis_0"), val = tensor<int32, []>(0)];
            tensor<int32, []> gather_79 = gather(axis = gather_79_axis_0, indices = gather_79_indices_0, x = var_812_shape_cast);
            tensor<int32, []> gather_80_indices_0 = const()[name = tensor<string, []>("gather_80_indices_0"), val = tensor<int32, []>(1)];
            tensor<int32, []> gather_80_axis_0 = const()[name = tensor<string, []>("gather_80_axis_0"), val = tensor<int32, []>(0)];
            tensor<int32, []> gather_80 = gather(axis = gather_80_axis_0, indices = gather_80_indices_0, x = var_812_shape_cast);
            tensor<int32, []> concat_41_axis_0 = const()[name = tensor<string, []>("concat_41_axis_0"), val = tensor<int32, []>(0)];
            tensor<bool, []> concat_41_interleave_0 = const()[name = tensor<string, []>("concat_41_interleave_0"), val = tensor<bool, []>(false)];
            tensor<int32, [4]> concat_41 = concat(axis = concat_41_axis_0, interleave = concat_41_interleave_0, values = (gather_79, gather_80, var_7, var_6));
            tensor<fp16, [?, ?, 12, 32]> x_119_cast = reshape(shape = concat_41, x = x_117_cast);
            tensor<bool, []> attention_scores_37_transpose_x_0 = const()[name = tensor<string, []>("attention_scores_37_transpose_x_0"), val = tensor<bool, []>(false)];
            tensor<bool, []> attention_scores_37_transpose_y_0 = const()[name = tensor<string, []>("attention_scores_37_transpose_y_0"), val = tensor<bool, []>(false)];
            tensor<int32, [4]> transpose_30_perm_0 = const()[name = tensor<string, []>("transpose_30_perm_0"), val = tensor<int32, [4]>([0, 2, 1, 3])];
            tensor<int32, [4]> transpose_31_perm_0 = const()[name = tensor<string, []>("transpose_31_perm_0"), val = tensor<int32, [4]>([0, 2, 3, 1])];
            tensor<fp16, [?, 12, 32, ?]> transpose_45 = transpose(perm = transpose_31_perm_0, x = x_111_cast);
            tensor<fp16, [?, 12, ?, 32]> transpose_46 = transpose(perm = transpose_30_perm_0, x = x_119_cast);
            tensor<fp16, [?, 12, ?, ?]> attention_scores_37_cast = matmul(transpose_x = attention_scores_37_transpose_x_0, transpose_y = attention_scores_37_transpose_y_0, x = transpose_46, y = transpose_45);
            tensor<fp16, []> _inversed_attention_scores_39_y_0_to_fp16 = const()[name = tensor<string, []>("_inversed_attention_scores_39_y_0_to_fp16"), val = tensor<fp16, []>(0x1.6ap-3)];
            tensor<fp16, [?, 12, ?, ?]> _inversed_attention_scores_39_cast = mul(x = attention_scores_37_cast, y = _inversed_attention_scores_39_y_0_to_fp16);
            tensor<fp16, [?, 12, ?, ?]> input_209_cast = add(x = _inversed_attention_scores_39_cast, y = cast_356);
            tensor<fp16, [?, 12, ?, ?]> input_211_cast = softmax(axis = var_8, x = input_209_cast);
            tensor<bool, []> context_layer_37_transpose_x_0 = const()[name = tensor<string, []>("context_layer_37_transpose_x_0"), val = tensor<bool, []>(false)];
            tensor<bool, []> context_layer_37_transpose_y_0 = const()[name = tensor<string, []>("context_layer_37_transpose_y_0"), val = tensor<bool, []>(false)];
            tensor<fp16, [?, 12, ?, 32]> transpose_47 = transpose(perm = var_810, x = x_115_cast);
            tensor<fp16, [?, 12, ?, 32]> context_layer_37_cast = matmul(transpose_x = context_layer_37_transpose_x_0, transpose_y = context_layer_37_transpose_y_0, x = input_211_cast, y = transpose_47);
            tensor<int32, [4]> var_826 = const()[name = tensor<string, []>("op_826"), val = tensor<int32, [4]>([0, 2, 1, 3])];
            tensor<fp16, [?, ?, 12, 32]> transpose_44 = transpose(perm = var_826, x = context_layer_37_cast);
            tensor<int32, [4]> var_829_shape_cast = shape(x = transpose_44);
            tensor<int32, []> gather_81_indices_0 = const()[name = tensor<string, []>("gather_81_indices_0"), val = tensor<int32, []>(0)];
            tensor<int32, []> gather_81_axis_0 = const()[name = tensor<string, []>("gather_81_axis_0"), val = tensor<int32, []>(0)];
            tensor<int32, []> gather_81 = gather(axis = gather_81_axis_0, indices = gather_81_indices_0, x = var_829_shape_cast);
            tensor<int32, []> gather_82_indices_0 = const()[name = tensor<string, []>("gather_82_indices_0"), val = tensor<int32, []>(1)];
            tensor<int32, []> gather_82_axis_0 = const()[name = tensor<string, []>("gather_82_axis_0"), val = tensor<int32, []>(0)];
            tensor<int32, []> gather_82 = gather(axis = gather_82_axis_0, indices = gather_82_indices_0, x = var_829_shape_cast);
            tensor<int32, []> concat_42_axis_0 = const()[name = tensor<string, []>("concat_42_axis_0"), val = tensor<int32, []>(0)];
            tensor<bool, []> concat_42_interleave_0 = const()[name = tensor<string, []>("concat_42_interleave_0"), val = tensor<bool, []>(false)];
            tensor<int32, [3]> concat_42 = concat(axis = concat_42_axis_0, interleave = concat_42_interleave_0, values = (gather_81, gather_82, var_11));
            tensor<fp16, [?, ?, 384]> input_213_cast = reshape(shape = concat_42, x = transpose_44);
            tensor<fp16, [384, 384]> model_encoder_layer_9_attention_output_dense_weight_to_fp16 = const()[name = tensor<string, []>("model_encoder_layer_9_attention_output_dense_weight_to_fp16"), val = tensor<fp16, [384, 384]>(BLOBFILE(path = tensor<string, []>("@model_path/weights/weight.bin"), offset = tensor<uint64, []>(225262080)))];
            tensor<fp16, [384]> model_encoder_layer_9_attention_output_dense_bias_to_fp16 = const()[name = tensor<string, []>("model_encoder_layer_9_attention_output_dense_bias_to_fp16"), val = tensor<fp16, [384]>(BLOBFILE(path = tensor<string, []>("@model_path/weights/weight.bin"), offset = tensor<uint64, []>(225557056)))];
            tensor<fp16, [?, ?, 384]> input_215_cast = linear(bias = model_encoder_layer_9_attention_output_dense_bias_to_fp16, weight = model_encoder_layer_9_attention_output_dense_weight_to_fp16, x = input_213_cast);
            tensor<fp16, [?, ?, 384]> input_217_cast = add(x = input_215_cast, y = input_207_cast);
            tensor<int32, [1]> input_219_axes_0 = const()[name = tensor<string, []>("input_219_axes_0"), val = tensor<int32, [1]>([-1])];
            tensor<fp16, [384]> model_encoder_layer_9_attention_output_LayerNorm_weight_to_fp16 = const()[name = tensor<string, []>("model_encoder_layer_9_attention_output_LayerNorm_weight_to_fp16"), val = tensor<fp16, [384]>(BLOBFILE(path = tensor<string, []>("@model_path/weights/weight.bin"), offset = tensor<uint64, []>(225557888)))];
            tensor<fp16, [384]> model_encoder_layer_9_attention_output_LayerNorm_bias_to_fp16 = const()[name = tensor<string, []>("model_encoder_layer_9_attention_output_LayerNorm_bias_to_fp16"), val = tensor<fp16, [384]>(BLOBFILE(path = tensor<string, []>("@model_path/weights/weight.bin"), offset = tensor<uint64, []>(225558720)))];
            tensor<fp16, [?, ?, 384]> input_219_cast = layer_norm(axes = input_219_axes_0, beta = model_encoder_layer_9_attention_output_LayerNorm_bias_to_fp16, epsilon = var_10_to_fp16, gamma = model_encoder_layer_9_attention_output_LayerNorm_weight_to_fp16, x = input_217_cast);
            tensor<fp16, [1536, 384]> model_encoder_layer_9_intermediate_dense_weight_to_fp16 = const()[name = tensor<string, []>("model_encoder_layer_9_intermediate_dense_weight_to_fp16"), val = tensor<fp16, [1536, 384]>(BLOBFILE(path = tensor<string, []>("@model_path/weights/weight.bin"), offset = tensor<uint64, []>(225559552)))];
            tensor<fp16, [1536]> model_encoder_layer_9_intermediate_dense_bias_to_fp16 = const()[name = tensor<string, []>("model_encoder_layer_9_intermediate_dense_bias_to_fp16"), val = tensor<fp16, [1536]>(BLOBFILE(path = tensor<string, []>("@model_path/weights/weight.bin"), offset = tensor<uint64, []>(226739264)))];
            tensor<fp16, [?, ?, 1536]> input_221_cast = linear(bias = model_encoder_layer_9_intermediate_dense_bias_to_fp16, weight = model_encoder_layer_9_intermediate_dense_weight_to_fp16, x = input_219_cast);
            tensor<string, []> input_223_mode_0 = const()[name = tensor<string, []>("input_223_mode_0"), val = tensor<string, []>("EXACT")];
            tensor<fp16, [?, ?, 1536]> input_223_cast = gelu(mode = input_223_mode_0, x = input_221_cast);
            tensor<fp16, [384, 1536]> model_encoder_layer_9_output_dense_weight_to_fp16 = const()[name = tensor<string, []>("model_encoder_layer_9_output_dense_weight_to_fp16"), val = tensor<fp16, [384, 1536]>(BLOBFILE(path = tensor<string, []>("@model_path/weights/weight.bin"), offset = tensor<uint64, []>(226742400)))];
            tensor<fp16, [384]> model_encoder_layer_9_output_dense_bias_to_fp16 = const()[name = tensor<string, []>("model_encoder_layer_9_output_dense_bias_to_fp16"), val = tensor<fp16, [384]>(BLOBFILE(path = tensor<string, []>("@model_path/weights/weight.bin"), offset = tensor<uint64, []>(227922112)))];
            tensor<fp16, [?, ?, 384]> input_225_cast = linear(bias = model_encoder_layer_9_output_dense_bias_to_fp16, weight = model_encoder_layer_9_output_dense_weight_to_fp16, x = input_223_cast);
            tensor<fp16, [?, ?, 384]> input_227_cast = add(x = input_225_cast, y = input_219_cast);
            tensor<int32, [1]> input_229_axes_0 = const()[name = tensor<string, []>("input_229_axes_0"), val = tensor<int32, [1]>([-1])];
            tensor<fp16, [384]> model_encoder_layer_9_output_LayerNorm_weight_to_fp16 = const()[name = tensor<string, []>("model_encoder_layer_9_output_LayerNorm_weight_to_fp16"), val = tensor<fp16, [384]>(BLOBFILE(path = tensor<string, []>("@model_path/weights/weight.bin"), offset = tensor<uint64, []>(227922944)))];
            tensor<fp16, [384]> model_encoder_layer_9_output_LayerNorm_bias_to_fp16 = const()[name = tensor<string, []>("model_encoder_layer_9_output_LayerNorm_bias_to_fp16"), val = tensor<fp16, [384]>(BLOBFILE(path = tensor<string, []>("@model_path/weights/weight.bin"), offset = tensor<uint64, []>(227923776)))];
            tensor<fp16, [?, ?, 384]> input_229_cast = layer_norm(axes = input_229_axes_0, beta = model_encoder_layer_9_output_LayerNorm_bias_to_fp16, epsilon = var_10_to_fp16, gamma = model_encoder_layer_9_output_LayerNorm_weight_to_fp16, x = input_227_cast);
            tensor<fp16, [384, 384]> model_encoder_layer_10_attention_self_query_weight_to_fp16 = const()[name = tensor<string, []>("model_encoder_layer_10_attention_self_query_weight_to_fp16"), val = tensor<fp16, [384, 384]>(BLOBFILE(path = tensor<string, []>("@model_path/weights/weight.bin"), offset = tensor<uint64, []>(227924608)))];
            tensor<fp16, [384]> model_encoder_layer_10_attention_self_query_bias_to_fp16 = const()[name = tensor<string, []>("model_encoder_layer_10_attention_self_query_bias_to_fp16"), val = tensor<fp16, [384]>(BLOBFILE(path = tensor<string, []>("@model_path/weights/weight.bin"), offset = tensor<uint64, []>(228219584)))];
            tensor<fp16, [?, ?, 384]> x_129_cast = linear(bias = model_encoder_layer_10_attention_self_query_bias_to_fp16, weight = model_encoder_layer_10_attention_self_query_weight_to_fp16, x = input_229_cast);
            tensor<fp16, [384, 384]> model_encoder_layer_10_attention_self_key_weight_to_fp16 = const()[name = tensor<string, []>("model_encoder_layer_10_attention_self_key_weight_to_fp16"), val = tensor<fp16, [384, 384]>(BLOBFILE(path = tensor<string, []>("@model_path/weights/weight.bin"), offset = tensor<uint64, []>(228220416)))];
            tensor<fp16, [384]> model_encoder_layer_10_attention_self_key_bias_to_fp16 = const()[name = tensor<string, []>("model_encoder_layer_10_attention_self_key_bias_to_fp16"), val = tensor<fp16, [384]>(BLOBFILE(path = tensor<string, []>("@model_path/weights/weight.bin"), offset = tensor<uint64, []>(228515392)))];
            tensor<fp16, [?, ?, 384]> x_121_cast = linear(bias = model_encoder_layer_10_attention_self_key_bias_to_fp16, weight = model_encoder_layer_10_attention_self_key_weight_to_fp16, x = input_229_cast);
            tensor<int32, [3]> var_874_shape_cast = shape(x = x_121_cast);
            tensor<int32, []> gather_83_indices_0 = const()[name = tensor<string, []>("gather_83_indices_0"), val = tensor<int32, []>(0)];
            tensor<int32, []> gather_83_axis_0 = const()[name = tensor<string, []>("gather_83_axis_0"), val = tensor<int32, []>(0)];
            tensor<int32, []> gather_83 = gather(axis = gather_83_axis_0, indices = gather_83_indices_0, x = var_874_shape_cast);
            tensor<int32, []> gather_84_indices_0 = const()[name = tensor<string, []>("gather_84_indices_0"), val = tensor<int32, []>(1)];
            tensor<int32, []> gather_84_axis_0 = const()[name = tensor<string, []>("gather_84_axis_0"), val = tensor<int32, []>(0)];
            tensor<int32, []> gather_84 = gather(axis = gather_84_axis_0, indices = gather_84_indices_0, x = var_874_shape_cast);
            tensor<int32, []> concat_43_axis_0 = const()[name = tensor<string, []>("concat_43_axis_0"), val = tensor<int32, []>(0)];
            tensor<bool, []> concat_43_interleave_0 = const()[name = tensor<string, []>("concat_43_interleave_0"), val = tensor<bool, []>(false)];
            tensor<int32, [4]> concat_43 = concat(axis = concat_43_axis_0, interleave = concat_43_interleave_0, values = (gather_83, gather_84, var_7, var_6));
            tensor<fp16, [?, ?, 12, 32]> x_123_cast = reshape(shape = concat_43, x = x_121_cast);
            tensor<fp16, [384, 384]> model_encoder_layer_10_attention_self_value_weight_to_fp16 = const()[name = tensor<string, []>("model_encoder_layer_10_attention_self_value_weight_to_fp16"), val = tensor<fp16, [384, 384]>(BLOBFILE(path = tensor<string, []>("@model_path/weights/weight.bin"), offset = tensor<uint64, []>(228516224)))];
            tensor<fp16, [384]> model_encoder_layer_10_attention_self_value_bias_to_fp16 = const()[name = tensor<string, []>("model_encoder_layer_10_attention_self_value_bias_to_fp16"), val = tensor<fp16, [384]>(BLOBFILE(path = tensor<string, []>("@model_path/weights/weight.bin"), offset = tensor<uint64, []>(228811200)))];
            tensor<fp16, [?, ?, 384]> x_125_cast = linear(bias = model_encoder_layer_10_attention_self_value_bias_to_fp16, weight = model_encoder_layer_10_attention_self_value_weight_to_fp16, x = input_229_cast);
            tensor<int32, [3]> var_883_shape_cast = shape(x = x_125_cast);
            tensor<int32, []> gather_85_indices_0 = const()[name = tensor<string, []>("gather_85_indices_0"), val = tensor<int32, []>(0)];
            tensor<int32, []> gather_85_axis_0 = const()[name = tensor<string, []>("gather_85_axis_0"), val = tensor<int32, []>(0)];
            tensor<int32, []> gather_85 = gather(axis = gather_85_axis_0, indices = gather_85_indices_0, x = var_883_shape_cast);
            tensor<int32, []> gather_86_indices_0 = const()[name = tensor<string, []>("gather_86_indices_0"), val = tensor<int32, []>(1)];
            tensor<int32, []> gather_86_axis_0 = const()[name = tensor<string, []>("gather_86_axis_0"), val = tensor<int32, []>(0)];
            tensor<int32, []> gather_86 = gather(axis = gather_86_axis_0, indices = gather_86_indices_0, x = var_883_shape_cast);
            tensor<int32, []> concat_44_axis_0 = const()[name = tensor<string, []>("concat_44_axis_0"), val = tensor<int32, []>(0)];
            tensor<bool, []> concat_44_interleave_0 = const()[name = tensor<string, []>("concat_44_interleave_0"), val = tensor<bool, []>(false)];
            tensor<int32, [4]> concat_44 = concat(axis = concat_44_axis_0, interleave = concat_44_interleave_0, values = (gather_85, gather_86, var_7, var_6));
            tensor<fp16, [?, ?, 12, 32]> x_127_cast = reshape(shape = concat_44, x = x_125_cast);
            tensor<int32, [4]> var_887 = const()[name = tensor<string, []>("op_887"), val = tensor<int32, [4]>([0, 2, 1, 3])];
            tensor<int32, [3]> var_889_shape_cast = shape(x = x_129_cast);
            tensor<int32, []> gather_87_indices_0 = const()[name = tensor<string, []>("gather_87_indices_0"), val = tensor<int32, []>(0)];
            tensor<int32, []> gather_87_axis_0 = const()[name = tensor<string, []>("gather_87_axis_0"), val = tensor<int32, []>(0)];
            tensor<int32, []> gather_87 = gather(axis = gather_87_axis_0, indices = gather_87_indices_0, x = var_889_shape_cast);
            tensor<int32, []> gather_88_indices_0 = const()[name = tensor<string, []>("gather_88_indices_0"), val = tensor<int32, []>(1)];
            tensor<int32, []> gather_88_axis_0 = const()[name = tensor<string, []>("gather_88_axis_0"), val = tensor<int32, []>(0)];
            tensor<int32, []> gather_88 = gather(axis = gather_88_axis_0, indices = gather_88_indices_0, x = var_889_shape_cast);
            tensor<int32, []> concat_45_axis_0 = const()[name = tensor<string, []>("concat_45_axis_0"), val = tensor<int32, []>(0)];
            tensor<bool, []> concat_45_interleave_0 = const()[name = tensor<string, []>("concat_45_interleave_0"), val = tensor<bool, []>(false)];
            tensor<int32, [4]> concat_45 = concat(axis = concat_45_axis_0, interleave = concat_45_interleave_0, values = (gather_87, gather_88, var_7, var_6));
            tensor<fp16, [?, ?, 12, 32]> x_131_cast = reshape(shape = concat_45, x = x_129_cast);
            tensor<bool, []> attention_scores_41_transpose_x_0 = const()[name = tensor<string, []>("attention_scores_41_transpose_x_0"), val = tensor<bool, []>(false)];
            tensor<bool, []> attention_scores_41_transpose_y_0 = const()[name = tensor<string, []>("attention_scores_41_transpose_y_0"), val = tensor<bool, []>(false)];
            tensor<int32, [4]> transpose_32_perm_0 = const()[name = tensor<string, []>("transpose_32_perm_0"), val = tensor<int32, [4]>([0, 2, 1, 3])];
            tensor<int32, [4]> transpose_33_perm_0 = const()[name = tensor<string, []>("transpose_33_perm_0"), val = tensor<int32, [4]>([0, 2, 3, 1])];
            tensor<fp16, [?, 12, 32, ?]> transpose_41 = transpose(perm = transpose_33_perm_0, x = x_123_cast);
            tensor<fp16, [?, 12, ?, 32]> transpose_42 = transpose(perm = transpose_32_perm_0, x = x_131_cast);
            tensor<fp16, [?, 12, ?, ?]> attention_scores_41_cast = matmul(transpose_x = attention_scores_41_transpose_x_0, transpose_y = attention_scores_41_transpose_y_0, x = transpose_42, y = transpose_41);
            tensor<fp16, []> _inversed_attention_scores_43_y_0_to_fp16 = const()[name = tensor<string, []>("_inversed_attention_scores_43_y_0_to_fp16"), val = tensor<fp16, []>(0x1.6ap-3)];
            tensor<fp16, [?, 12, ?, ?]> _inversed_attention_scores_43_cast = mul(x = attention_scores_41_cast, y = _inversed_attention_scores_43_y_0_to_fp16);
            tensor<fp16, [?, 12, ?, ?]> input_231_cast = add(x = _inversed_attention_scores_43_cast, y = cast_356);
            tensor<fp16, [?, 12, ?, ?]> input_233_cast = softmax(axis = var_8, x = input_231_cast);
            tensor<bool, []> context_layer_41_transpose_x_0 = const()[name = tensor<string, []>("context_layer_41_transpose_x_0"), val = tensor<bool, []>(false)];
            tensor<bool, []> context_layer_41_transpose_y_0 = const()[name = tensor<string, []>("context_layer_41_transpose_y_0"), val = tensor<bool, []>(false)];
            tensor<fp16, [?, 12, ?, 32]> transpose_43 = transpose(perm = var_887, x = x_127_cast);
            tensor<fp16, [?, 12, ?, 32]> context_layer_41_cast = matmul(transpose_x = context_layer_41_transpose_x_0, transpose_y = context_layer_41_transpose_y_0, x = input_233_cast, y = transpose_43);
            tensor<int32, [4]> var_903 = const()[name = tensor<string, []>("op_903"), val = tensor<int32, [4]>([0, 2, 1, 3])];
            tensor<fp16, [?, ?, 12, 32]> transpose_40 = transpose(perm = var_903, x = context_layer_41_cast);
            tensor<int32, [4]> var_906_shape_cast = shape(x = transpose_40);
            tensor<int32, []> gather_89_indices_0 = const()[name = tensor<string, []>("gather_89_indices_0"), val = tensor<int32, []>(0)];
            tensor<int32, []> gather_89_axis_0 = const()[name = tensor<string, []>("gather_89_axis_0"), val = tensor<int32, []>(0)];
            tensor<int32, []> gather_89 = gather(axis = gather_89_axis_0, indices = gather_89_indices_0, x = var_906_shape_cast);
            tensor<int32, []> gather_90_indices_0 = const()[name = tensor<string, []>("gather_90_indices_0"), val = tensor<int32, []>(1)];
            tensor<int32, []> gather_90_axis_0 = const()[name = tensor<string, []>("gather_90_axis_0"), val = tensor<int32, []>(0)];
            tensor<int32, []> gather_90 = gather(axis = gather_90_axis_0, indices = gather_90_indices_0, x = var_906_shape_cast);
            tensor<int32, []> concat_46_axis_0 = const()[name = tensor<string, []>("concat_46_axis_0"), val = tensor<int32, []>(0)];
            tensor<bool, []> concat_46_interleave_0 = const()[name = tensor<string, []>("concat_46_interleave_0"), val = tensor<bool, []>(false)];
            tensor<int32, [3]> concat_46 = concat(axis = concat_46_axis_0, interleave = concat_46_interleave_0, values = (gather_89, gather_90, var_11));
            tensor<fp16, [?, ?, 384]> input_235_cast = reshape(shape = concat_46, x = transpose_40);
            tensor<fp16, [384, 384]> model_encoder_layer_10_attention_output_dense_weight_to_fp16 = const()[name = tensor<string, []>("model_encoder_layer_10_attention_output_dense_weight_to_fp16"), val = tensor<fp16, [384, 384]>(BLOBFILE(path = tensor<string, []>("@model_path/weights/weight.bin"), offset = tensor<uint64, []>(228812032)))];
            tensor<fp16, [384]> model_encoder_layer_10_attention_output_dense_bias_to_fp16 = const()[name = tensor<string, []>("model_encoder_layer_10_attention_output_dense_bias_to_fp16"), val = tensor<fp16, [384]>(BLOBFILE(path = tensor<string, []>("@model_path/weights/weight.bin"), offset = tensor<uint64, []>(229107008)))];
            tensor<fp16, [?, ?, 384]> input_237_cast = linear(bias = model_encoder_layer_10_attention_output_dense_bias_to_fp16, weight = model_encoder_layer_10_attention_output_dense_weight_to_fp16, x = input_235_cast);
            tensor<fp16, [?, ?, 384]> input_239_cast = add(x = input_237_cast, y = input_229_cast);
            tensor<int32, [1]> input_241_axes_0 = const()[name = tensor<string, []>("input_241_axes_0"), val = tensor<int32, [1]>([-1])];
            tensor<fp16, [384]> model_encoder_layer_10_attention_output_LayerNorm_weight_to_fp16 = const()[name = tensor<string, []>("model_encoder_layer_10_attention_output_LayerNorm_weight_to_fp16"), val = tensor<fp16, [384]>(BLOBFILE(path = tensor<string, []>("@model_path/weights/weight.bin"), offset = tensor<uint64, []>(229107840)))];
            tensor<fp16, [384]> model_encoder_layer_10_attention_output_LayerNorm_bias_to_fp16 = const()[name = tensor<string, []>("model_encoder_layer_10_attention_output_LayerNorm_bias_to_fp16"), val = tensor<fp16, [384]>(BLOBFILE(path = tensor<string, []>("@model_path/weights/weight.bin"), offset = tensor<uint64, []>(229108672)))];
            tensor<fp16, [?, ?, 384]> input_241_cast = layer_norm(axes = input_241_axes_0, beta = model_encoder_layer_10_attention_output_LayerNorm_bias_to_fp16, epsilon = var_10_to_fp16, gamma = model_encoder_layer_10_attention_output_LayerNorm_weight_to_fp16, x = input_239_cast);
            tensor<fp16, [1536, 384]> model_encoder_layer_10_intermediate_dense_weight_to_fp16 = const()[name = tensor<string, []>("model_encoder_layer_10_intermediate_dense_weight_to_fp16"), val = tensor<fp16, [1536, 384]>(BLOBFILE(path = tensor<string, []>("@model_path/weights/weight.bin"), offset = tensor<uint64, []>(229109504)))];
            tensor<fp16, [1536]> model_encoder_layer_10_intermediate_dense_bias_to_fp16 = const()[name = tensor<string, []>("model_encoder_layer_10_intermediate_dense_bias_to_fp16"), val = tensor<fp16, [1536]>(BLOBFILE(path = tensor<string, []>("@model_path/weights/weight.bin"), offset = tensor<uint64, []>(230289216)))];
            tensor<fp16, [?, ?, 1536]> input_243_cast = linear(bias = model_encoder_layer_10_intermediate_dense_bias_to_fp16, weight = model_encoder_layer_10_intermediate_dense_weight_to_fp16, x = input_241_cast);
            tensor<string, []> input_245_mode_0 = const()[name = tensor<string, []>("input_245_mode_0"), val = tensor<string, []>("EXACT")];
            tensor<fp16, [?, ?, 1536]> input_245_cast = gelu(mode = input_245_mode_0, x = input_243_cast);
            tensor<fp16, [384, 1536]> model_encoder_layer_10_output_dense_weight_to_fp16 = const()[name = tensor<string, []>("model_encoder_layer_10_output_dense_weight_to_fp16"), val = tensor<fp16, [384, 1536]>(BLOBFILE(path = tensor<string, []>("@model_path/weights/weight.bin"), offset = tensor<uint64, []>(230292352)))];
            tensor<fp16, [384]> model_encoder_layer_10_output_dense_bias_to_fp16 = const()[name = tensor<string, []>("model_encoder_layer_10_output_dense_bias_to_fp16"), val = tensor<fp16, [384]>(BLOBFILE(path = tensor<string, []>("@model_path/weights/weight.bin"), offset = tensor<uint64, []>(231472064)))];
            tensor<fp16, [?, ?, 384]> input_247_cast = linear(bias = model_encoder_layer_10_output_dense_bias_to_fp16, weight = model_encoder_layer_10_output_dense_weight_to_fp16, x = input_245_cast);
            tensor<fp16, [?, ?, 384]> input_249_cast = add(x = input_247_cast, y = input_241_cast);
            tensor<int32, [1]> input_251_axes_0 = const()[name = tensor<string, []>("input_251_axes_0"), val = tensor<int32, [1]>([-1])];
            tensor<fp16, [384]> model_encoder_layer_10_output_LayerNorm_weight_to_fp16 = const()[name = tensor<string, []>("model_encoder_layer_10_output_LayerNorm_weight_to_fp16"), val = tensor<fp16, [384]>(BLOBFILE(path = tensor<string, []>("@model_path/weights/weight.bin"), offset = tensor<uint64, []>(231472896)))];
            tensor<fp16, [384]> model_encoder_layer_10_output_LayerNorm_bias_to_fp16 = const()[name = tensor<string, []>("model_encoder_layer_10_output_LayerNorm_bias_to_fp16"), val = tensor<fp16, [384]>(BLOBFILE(path = tensor<string, []>("@model_path/weights/weight.bin"), offset = tensor<uint64, []>(231473728)))];
            tensor<fp16, [?, ?, 384]> input_251_cast = layer_norm(axes = input_251_axes_0, beta = model_encoder_layer_10_output_LayerNorm_bias_to_fp16, epsilon = var_10_to_fp16, gamma = model_encoder_layer_10_output_LayerNorm_weight_to_fp16, x = input_249_cast);
            tensor<fp16, [384, 384]> model_encoder_layer_11_attention_self_query_weight_to_fp16 = const()[name = tensor<string, []>("model_encoder_layer_11_attention_self_query_weight_to_fp16"), val = tensor<fp16, [384, 384]>(BLOBFILE(path = tensor<string, []>("@model_path/weights/weight.bin"), offset = tensor<uint64, []>(231474560)))];
            tensor<fp16, [384]> model_encoder_layer_11_attention_self_query_bias_to_fp16 = const()[name = tensor<string, []>("model_encoder_layer_11_attention_self_query_bias_to_fp16"), val = tensor<fp16, [384]>(BLOBFILE(path = tensor<string, []>("@model_path/weights/weight.bin"), offset = tensor<uint64, []>(231769536)))];
            tensor<fp16, [?, ?, 384]> x_141_cast = linear(bias = model_encoder_layer_11_attention_self_query_bias_to_fp16, weight = model_encoder_layer_11_attention_self_query_weight_to_fp16, x = input_251_cast);
            tensor<fp16, [384, 384]> model_encoder_layer_11_attention_self_key_weight_to_fp16 = const()[name = tensor<string, []>("model_encoder_layer_11_attention_self_key_weight_to_fp16"), val = tensor<fp16, [384, 384]>(BLOBFILE(path = tensor<string, []>("@model_path/weights/weight.bin"), offset = tensor<uint64, []>(231770368)))];
            tensor<fp16, [384]> model_encoder_layer_11_attention_self_key_bias_to_fp16 = const()[name = tensor<string, []>("model_encoder_layer_11_attention_self_key_bias_to_fp16"), val = tensor<fp16, [384]>(BLOBFILE(path = tensor<string, []>("@model_path/weights/weight.bin"), offset = tensor<uint64, []>(232065344)))];
            tensor<fp16, [?, ?, 384]> x_133_cast = linear(bias = model_encoder_layer_11_attention_self_key_bias_to_fp16, weight = model_encoder_layer_11_attention_self_key_weight_to_fp16, x = input_251_cast);
            tensor<int32, [3]> var_951_shape_cast = shape(x = x_133_cast);
            tensor<int32, []> gather_91_indices_0 = const()[name = tensor<string, []>("gather_91_indices_0"), val = tensor<int32, []>(0)];
            tensor<int32, []> gather_91_axis_0 = const()[name = tensor<string, []>("gather_91_axis_0"), val = tensor<int32, []>(0)];
            tensor<int32, []> gather_91 = gather(axis = gather_91_axis_0, indices = gather_91_indices_0, x = var_951_shape_cast);
            tensor<int32, []> gather_92_indices_0 = const()[name = tensor<string, []>("gather_92_indices_0"), val = tensor<int32, []>(1)];
            tensor<int32, []> gather_92_axis_0 = const()[name = tensor<string, []>("gather_92_axis_0"), val = tensor<int32, []>(0)];
            tensor<int32, []> gather_92 = gather(axis = gather_92_axis_0, indices = gather_92_indices_0, x = var_951_shape_cast);
            tensor<int32, []> concat_47_axis_0 = const()[name = tensor<string, []>("concat_47_axis_0"), val = tensor<int32, []>(0)];
            tensor<bool, []> concat_47_interleave_0 = const()[name = tensor<string, []>("concat_47_interleave_0"), val = tensor<bool, []>(false)];
            tensor<int32, [4]> concat_47 = concat(axis = concat_47_axis_0, interleave = concat_47_interleave_0, values = (gather_91, gather_92, var_7, var_6));
            tensor<fp16, [?, ?, 12, 32]> x_135_cast = reshape(shape = concat_47, x = x_133_cast);
            tensor<fp16, [384, 384]> model_encoder_layer_11_attention_self_value_weight_to_fp16 = const()[name = tensor<string, []>("model_encoder_layer_11_attention_self_value_weight_to_fp16"), val = tensor<fp16, [384, 384]>(BLOBFILE(path = tensor<string, []>("@model_path/weights/weight.bin"), offset = tensor<uint64, []>(232066176)))];
            tensor<fp16, [384]> model_encoder_layer_11_attention_self_value_bias_to_fp16 = const()[name = tensor<string, []>("model_encoder_layer_11_attention_self_value_bias_to_fp16"), val = tensor<fp16, [384]>(BLOBFILE(path = tensor<string, []>("@model_path/weights/weight.bin"), offset = tensor<uint64, []>(232361152)))];
            tensor<fp16, [?, ?, 384]> x_137_cast = linear(bias = model_encoder_layer_11_attention_self_value_bias_to_fp16, weight = model_encoder_layer_11_attention_self_value_weight_to_fp16, x = input_251_cast);
            tensor<int32, [3]> var_960_shape_cast = shape(x = x_137_cast);
            tensor<int32, []> gather_93_indices_0 = const()[name = tensor<string, []>("gather_93_indices_0"), val = tensor<int32, []>(0)];
            tensor<int32, []> gather_93_axis_0 = const()[name = tensor<string, []>("gather_93_axis_0"), val = tensor<int32, []>(0)];
            tensor<int32, []> gather_93 = gather(axis = gather_93_axis_0, indices = gather_93_indices_0, x = var_960_shape_cast);
            tensor<int32, []> gather_94_indices_0 = const()[name = tensor<string, []>("gather_94_indices_0"), val = tensor<int32, []>(1)];
            tensor<int32, []> gather_94_axis_0 = const()[name = tensor<string, []>("gather_94_axis_0"), val = tensor<int32, []>(0)];
            tensor<int32, []> gather_94 = gather(axis = gather_94_axis_0, indices = gather_94_indices_0, x = var_960_shape_cast);
            tensor<int32, []> concat_48_axis_0 = const()[name = tensor<string, []>("concat_48_axis_0"), val = tensor<int32, []>(0)];
            tensor<bool, []> concat_48_interleave_0 = const()[name = tensor<string, []>("concat_48_interleave_0"), val = tensor<bool, []>(false)];
            tensor<int32, [4]> concat_48 = concat(axis = concat_48_axis_0, interleave = concat_48_interleave_0, values = (gather_93, gather_94, var_7, var_6));
            tensor<fp16, [?, ?, 12, 32]> x_139_cast = reshape(shape = concat_48, x = x_137_cast);
            tensor<int32, [4]> var_964 = const()[name = tensor<string, []>("op_964"), val = tensor<int32, [4]>([0, 2, 1, 3])];
            tensor<int32, [3]> var_966_shape_cast = shape(x = x_141_cast);
            tensor<int32, []> gather_95_indices_0 = const()[name = tensor<string, []>("gather_95_indices_0"), val = tensor<int32, []>(0)];
            tensor<int32, []> gather_95_axis_0 = const()[name = tensor<string, []>("gather_95_axis_0"), val = tensor<int32, []>(0)];
            tensor<int32, []> gather_95 = gather(axis = gather_95_axis_0, indices = gather_95_indices_0, x = var_966_shape_cast);
            tensor<int32, []> gather_96_indices_0 = const()[name = tensor<string, []>("gather_96_indices_0"), val = tensor<int32, []>(1)];
            tensor<int32, []> gather_96_axis_0 = const()[name = tensor<string, []>("gather_96_axis_0"), val = tensor<int32, []>(0)];
            tensor<int32, []> gather_96 = gather(axis = gather_96_axis_0, indices = gather_96_indices_0, x = var_966_shape_cast);
            tensor<int32, []> concat_49_axis_0 = const()[name = tensor<string, []>("concat_49_axis_0"), val = tensor<int32, []>(0)];
            tensor<bool, []> concat_49_interleave_0 = const()[name = tensor<string, []>("concat_49_interleave_0"), val = tensor<bool, []>(false)];
            tensor<int32, [4]> concat_49 = concat(axis = concat_49_axis_0, interleave = concat_49_interleave_0, values = (gather_95, gather_96, var_7, var_6));
            tensor<fp16, [?, ?, 12, 32]> x_cast = reshape(shape = concat_49, x = x_141_cast);
            tensor<bool, []> attention_scores_45_transpose_x_0 = const()[name = tensor<string, []>("attention_scores_45_transpose_x_0"), val = tensor<bool, []>(false)];
            tensor<bool, []> attention_scores_45_transpose_y_0 = const()[name = tensor<string, []>("attention_scores_45_transpose_y_0"), val = tensor<bool, []>(false)];
            tensor<int32, [4]> transpose_34_perm_0 = const()[name = tensor<string, []>("transpose_34_perm_0"), val = tensor<int32, [4]>([0, 2, 1, 3])];
            tensor<int32, [4]> transpose_35_perm_0 = const()[name = tensor<string, []>("transpose_35_perm_0"), val = tensor<int32, [4]>([0, 2, 3, 1])];
            tensor<fp16, [?, 12, 32, ?]> transpose_37 = transpose(perm = transpose_35_perm_0, x = x_135_cast);
            tensor<fp16, [?, 12, ?, 32]> transpose_38 = transpose(perm = transpose_34_perm_0, x = x_cast);
            tensor<fp16, [?, 12, ?, ?]> attention_scores_45_cast = matmul(transpose_x = attention_scores_45_transpose_x_0, transpose_y = attention_scores_45_transpose_y_0, x = transpose_38, y = transpose_37);
            tensor<fp16, []> _inversed_attention_scores_y_0_to_fp16 = const()[name = tensor<string, []>("_inversed_attention_scores_y_0_to_fp16"), val = tensor<fp16, []>(0x1.6ap-3)];
            tensor<fp16, [?, 12, ?, ?]> _inversed_attention_scores_cast = mul(x = attention_scores_45_cast, y = _inversed_attention_scores_y_0_to_fp16);
            tensor<fp16, [?, 12, ?, ?]> input_253_cast = add(x = _inversed_attention_scores_cast, y = cast_356);
            tensor<fp16, [?, 12, ?, ?]> input_255_cast = softmax(axis = var_8, x = input_253_cast);
            tensor<bool, []> context_layer_45_transpose_x_0 = const()[name = tensor<string, []>("context_layer_45_transpose_x_0"), val = tensor<bool, []>(false)];
            tensor<bool, []> context_layer_45_transpose_y_0 = const()[name = tensor<string, []>("context_layer_45_transpose_y_0"), val = tensor<bool, []>(false)];
            tensor<fp16, [?, 12, ?, 32]> transpose_39 = transpose(perm = var_964, x = x_139_cast);
            tensor<fp16, [?, 12, ?, 32]> context_layer_45_cast = matmul(transpose_x = context_layer_45_transpose_x_0, transpose_y = context_layer_45_transpose_y_0, x = input_255_cast, y = transpose_39);
            tensor<int32, [4]> var_980 = const()[name = tensor<string, []>("op_980"), val = tensor<int32, [4]>([0, 2, 1, 3])];
            tensor<fp16, [?, ?, 12, 32]> transpose_36 = transpose(perm = var_980, x = context_layer_45_cast);
            tensor<int32, [4]> var_983_shape_cast = shape(x = transpose_36);
            tensor<int32, []> gather_97_indices_0 = const()[name = tensor<string, []>("gather_97_indices_0"), val = tensor<int32, []>(0)];
            tensor<int32, []> gather_97_axis_0 = const()[name = tensor<string, []>("gather_97_axis_0"), val = tensor<int32, []>(0)];
            tensor<int32, []> gather_97 = gather(axis = gather_97_axis_0, indices = gather_97_indices_0, x = var_983_shape_cast);
            tensor<int32, []> gather_98_indices_0 = const()[name = tensor<string, []>("gather_98_indices_0"), val = tensor<int32, []>(1)];
            tensor<int32, []> gather_98_axis_0 = const()[name = tensor<string, []>("gather_98_axis_0"), val = tensor<int32, []>(0)];
            tensor<int32, []> gather_98 = gather(axis = gather_98_axis_0, indices = gather_98_indices_0, x = var_983_shape_cast);
            tensor<int32, []> concat_50_axis_0 = const()[name = tensor<string, []>("concat_50_axis_0"), val = tensor<int32, []>(0)];
            tensor<bool, []> concat_50_interleave_0 = const()[name = tensor<string, []>("concat_50_interleave_0"), val = tensor<bool, []>(false)];
            tensor<int32, [3]> concat_50 = concat(axis = concat_50_axis_0, interleave = concat_50_interleave_0, values = (gather_97, gather_98, var_11));
            tensor<fp16, [?, ?, 384]> input_257_cast = reshape(shape = concat_50, x = transpose_36);
            tensor<fp16, [384, 384]> model_encoder_layer_11_attention_output_dense_weight_to_fp16 = const()[name = tensor<string, []>("model_encoder_layer_11_attention_output_dense_weight_to_fp16"), val = tensor<fp16, [384, 384]>(BLOBFILE(path = tensor<string, []>("@model_path/weights/weight.bin"), offset = tensor<uint64, []>(232361984)))];
            tensor<fp16, [384]> model_encoder_layer_11_attention_output_dense_bias_to_fp16 = const()[name = tensor<string, []>("model_encoder_layer_11_attention_output_dense_bias_to_fp16"), val = tensor<fp16, [384]>(BLOBFILE(path = tensor<string, []>("@model_path/weights/weight.bin"), offset = tensor<uint64, []>(232656960)))];
            tensor<fp16, [?, ?, 384]> input_259_cast = linear(bias = model_encoder_layer_11_attention_output_dense_bias_to_fp16, weight = model_encoder_layer_11_attention_output_dense_weight_to_fp16, x = input_257_cast);
            tensor<fp16, [?, ?, 384]> input_261_cast = add(x = input_259_cast, y = input_251_cast);
            tensor<int32, [1]> input_263_axes_0 = const()[name = tensor<string, []>("input_263_axes_0"), val = tensor<int32, [1]>([-1])];
            tensor<fp16, [384]> model_encoder_layer_11_attention_output_LayerNorm_weight_to_fp16 = const()[name = tensor<string, []>("model_encoder_layer_11_attention_output_LayerNorm_weight_to_fp16"), val = tensor<fp16, [384]>(BLOBFILE(path = tensor<string, []>("@model_path/weights/weight.bin"), offset = tensor<uint64, []>(232657792)))];
            tensor<fp16, [384]> model_encoder_layer_11_attention_output_LayerNorm_bias_to_fp16 = const()[name = tensor<string, []>("model_encoder_layer_11_attention_output_LayerNorm_bias_to_fp16"), val = tensor<fp16, [384]>(BLOBFILE(path = tensor<string, []>("@model_path/weights/weight.bin"), offset = tensor<uint64, []>(232658624)))];
            tensor<fp16, [?, ?, 384]> input_263_cast = layer_norm(axes = input_263_axes_0, beta = model_encoder_layer_11_attention_output_LayerNorm_bias_to_fp16, epsilon = var_10_to_fp16, gamma = model_encoder_layer_11_attention_output_LayerNorm_weight_to_fp16, x = input_261_cast);
            tensor<fp16, [1536, 384]> model_encoder_layer_11_intermediate_dense_weight_to_fp16 = const()[name = tensor<string, []>("model_encoder_layer_11_intermediate_dense_weight_to_fp16"), val = tensor<fp16, [1536, 384]>(BLOBFILE(path = tensor<string, []>("@model_path/weights/weight.bin"), offset = tensor<uint64, []>(232659456)))];
            tensor<fp16, [1536]> model_encoder_layer_11_intermediate_dense_bias_to_fp16 = const()[name = tensor<string, []>("model_encoder_layer_11_intermediate_dense_bias_to_fp16"), val = tensor<fp16, [1536]>(BLOBFILE(path = tensor<string, []>("@model_path/weights/weight.bin"), offset = tensor<uint64, []>(233839168)))];
            tensor<fp16, [?, ?, 1536]> input_265_cast = linear(bias = model_encoder_layer_11_intermediate_dense_bias_to_fp16, weight = model_encoder_layer_11_intermediate_dense_weight_to_fp16, x = input_263_cast);
            tensor<string, []> input_267_mode_0 = const()[name = tensor<string, []>("input_267_mode_0"), val = tensor<string, []>("EXACT")];
            tensor<fp16, [?, ?, 1536]> input_267_cast = gelu(mode = input_267_mode_0, x = input_265_cast);
            tensor<fp16, [384, 1536]> model_encoder_layer_11_output_dense_weight_to_fp16 = const()[name = tensor<string, []>("model_encoder_layer_11_output_dense_weight_to_fp16"), val = tensor<fp16, [384, 1536]>(BLOBFILE(path = tensor<string, []>("@model_path/weights/weight.bin"), offset = tensor<uint64, []>(233842304)))];
            tensor<fp16, [384]> model_encoder_layer_11_output_dense_bias_to_fp16 = const()[name = tensor<string, []>("model_encoder_layer_11_output_dense_bias_to_fp16"), val = tensor<fp16, [384]>(BLOBFILE(path = tensor<string, []>("@model_path/weights/weight.bin"), offset = tensor<uint64, []>(235022016)))];
            tensor<fp16, [?, ?, 384]> input_269_cast = linear(bias = model_encoder_layer_11_output_dense_bias_to_fp16, weight = model_encoder_layer_11_output_dense_weight_to_fp16, x = input_267_cast);
            tensor<fp16, [?, ?, 384]> input_271_cast = add(x = input_269_cast, y = input_263_cast);
            tensor<int32, [1]> hidden_states_axes_0 = const()[name = tensor<string, []>("hidden_states_axes_0"), val = tensor<int32, [1]>([-1])];
            tensor<fp16, [384]> model_encoder_layer_11_output_LayerNorm_weight_to_fp16 = const()[name = tensor<string, []>("model_encoder_layer_11_output_LayerNorm_weight_to_fp16"), val = tensor<fp16, [384]>(BLOBFILE(path = tensor<string, []>("@model_path/weights/weight.bin"), offset = tensor<uint64, []>(235022848)))];
            tensor<fp16, [384]> model_encoder_layer_11_output_LayerNorm_bias_to_fp16 = const()[name = tensor<string, []>("model_encoder_layer_11_output_LayerNorm_bias_to_fp16"), val = tensor<fp16, [384]>(BLOBFILE(path = tensor<string, []>("@model_path/weights/weight.bin"), offset = tensor<uint64, []>(235023680)))];
            tensor<fp16, [?, ?, 384]> hidden_states_cast = layer_norm(axes = hidden_states_axes_0, beta = model_encoder_layer_11_output_LayerNorm_bias_to_fp16, epsilon = var_10_to_fp16, gamma = model_encoder_layer_11_output_LayerNorm_weight_to_fp16, x = input_271_cast);
            tensor<string, []> hidden_states_cast_to_fp32_dtype_0 = const()[name = tensor<string, []>("hidden_states_cast_to_fp32_dtype_0"), val = tensor<string, []>("fp32")];
            tensor<int32, [3]> input_273_begin_0 = const()[name = tensor<string, []>("input_273_begin_0"), val = tensor<int32, [3]>([0, 0, 0])];
            tensor<int32, [3]> input_273_end_0 = const()[name = tensor<string, []>("input_273_end_0"), val = tensor<int32, [3]>([0, 1, 384])];
            tensor<bool, [3]> input_273_end_mask_0 = const()[name = tensor<string, []>("input_273_end_mask_0"), val = tensor<bool, [3]>([true, false, true])];
            tensor<bool, [3]> input_273_squeeze_mask_0 = const()[name = tensor<string, []>("input_273_squeeze_mask_0"), val = tensor<bool, [3]>([false, true, false])];
            tensor<fp16, [?, 384]> input_273_cast = slice_by_index(begin = input_273_begin_0, end = input_273_end_0, end_mask = input_273_end_mask_0, squeeze_mask = input_273_squeeze_mask_0, x = hidden_states_cast);
            tensor<fp16, [384, 384]> model_pooler_dense_weight_to_fp16 = const()[name = tensor<string, []>("model_pooler_dense_weight_to_fp16"), val = tensor<fp16, [384, 384]>(BLOBFILE(path = tensor<string, []>("@model_path/weights/weight.bin"), offset = tensor<uint64, []>(235024512)))];
            tensor<fp16, [384]> model_pooler_dense_bias_to_fp16 = const()[name = tensor<string, []>("model_pooler_dense_bias_to_fp16"), val = tensor<fp16, [384]>(BLOBFILE(path = tensor<string, []>("@model_path/weights/weight.bin"), offset = tensor<uint64, []>(235319488)))];
            tensor<fp16, [?, 384]> input_cast = linear(bias = model_pooler_dense_bias_to_fp16, weight = model_pooler_dense_weight_to_fp16, x = input_273_cast);
            tensor<fp16, [?, 384]> var_1020_cast = tanh(x = input_cast);
            tensor<string, []> var_1020_cast_to_fp32_dtype_0 = const()[name = tensor<string, []>("op_1020_cast_to_fp32_dtype_0"), val = tensor<string, []>("fp32")];
            tensor<fp32, [?, 384]> pooler_output = cast(dtype = var_1020_cast_to_fp32_dtype_0, x = var_1020_cast);
            tensor<fp32, [?, ?, 384]> last_hidden_state = cast(dtype = hidden_states_cast_to_fp32_dtype_0, x = hidden_states_cast);
        } -> (last_hidden_state, pooler_output);
}